{"format": "layers-model", "generatedBy": "keras v2.3.0-tf", "convertedBy": "TensorFlow.js Converter v2.0.1", "modelTopology": {"keras_version": "2.3.0-tf", "backend": "tensorflow", "model_config": {"class_name": "Sequential", "config": {"name": "sequential", "layers": [{"class_name": "Model", "config": {"name": "vgg16", "layers": [{"class_name": "InputLayer", "config": {"batch_input_shape": [null, 224, 224, 3], "dtype": "float32", "sparse": false, "ragged": false, "name": "input_1"}, "name": "input_1", "inbound_nodes": []}, {"class_name": "Conv2D", "config": {"name": "block1_conv1", "trainable": false, "dtype": "float32", "filters": 64, "kernel_size": [3, 3], "strides": [1, 1], "padding": "same", "data_format": "channels_last", "dilation_rate": [1, 1], "activation": "relu", "use_bias": true, "kernel_initializer": {"class_name": "GlorotUniform", "config": {"seed": null}}, "bias_initializer": {"class_name": "Zeros", "config": {}}, "kernel_regularizer": null, "bias_regularizer": null, "activity_regularizer": null, "kernel_constraint": null, "bias_constraint": null}, "name": "block1_conv1", "inbound_nodes": [[["input_1", 0, 0, {}]]]}, {"class_name": "Conv2D", "config": {"name": "block1_conv2", "trainable": false, "dtype": "float32", "filters": 64, "kernel_size": [3, 3], "strides": [1, 1], "padding": "same", "data_format": "channels_last", "dilation_rate": [1, 1], "activation": "relu", "use_bias": true, "kernel_initializer": {"class_name": "GlorotUniform", "config": {"seed": null}}, "bias_initializer": {"class_name": "Zeros", "config": {}}, "kernel_regularizer": null, "bias_regularizer": null, "activity_regularizer": null, "kernel_constraint": null, "bias_constraint": null}, "name": "block1_conv2", "inbound_nodes": [[["block1_conv1", 0, 0, {}]]]}, {"class_name": "MaxPooling2D", "config": {"name": "block1_pool", "trainable": false, "dtype": "float32", "pool_size": [2, 2], "padding": "valid", "strides": [2, 2], "data_format": "channels_last"}, "name": "block1_pool", "inbound_nodes": [[["block1_conv2", 0, 0, {}]]]}, {"class_name": "Conv2D", "config": {"name": "block2_conv1", "trainable": false, "dtype": "float32", "filters": 128, "kernel_size": [3, 3], "strides": [1, 1], "padding": "same", "data_format": "channels_last", "dilation_rate": [1, 1], "activation": "relu", "use_bias": true, "kernel_initializer": {"class_name": "GlorotUniform", "config": {"seed": null}}, "bias_initializer": {"class_name": "Zeros", "config": {}}, "kernel_regularizer": null, "bias_regularizer": null, "activity_regularizer": null, "kernel_constraint": null, "bias_constraint": null}, "name": "block2_conv1", "inbound_nodes": [[["block1_pool", 0, 0, {}]]]}, {"class_name": "Conv2D", "config": {"name": "block2_conv2", "trainable": false, "dtype": "float32", "filters": 128, "kernel_size": [3, 3], "strides": [1, 1], "padding": "same", "data_format": "channels_last", "dilation_rate": [1, 1], "activation": "relu", "use_bias": true, "kernel_initializer": {"class_name": "GlorotUniform", "config": {"seed": null}}, "bias_initializer": {"class_name": "Zeros", "config": {}}, "kernel_regularizer": null, "bias_regularizer": null, "activity_regularizer": null, "kernel_constraint": null, "bias_constraint": null}, "name": "block2_conv2", "inbound_nodes": [[["block2_conv1", 0, 0, {}]]]}, {"class_name": "MaxPooling2D", "config": {"name": "block2_pool", "trainable": false, "dtype": "float32", "pool_size": [2, 2], "padding": "valid", "strides": [2, 2], "data_format": "channels_last"}, "name": "block2_pool", "inbound_nodes": [[["block2_conv2", 0, 0, {}]]]}, {"class_name": "Conv2D", "config": {"name": "block3_conv1", "trainable": false, "dtype": "float32", "filters": 256, "kernel_size": [3, 3], "strides": [1, 1], "padding": "same", "data_format": "channels_last", "dilation_rate": [1, 1], "activation": "relu", "use_bias": true, "kernel_initializer": {"class_name": "GlorotUniform", "config": {"seed": null}}, "bias_initializer": {"class_name": "Zeros", "config": {}}, "kernel_regularizer": null, "bias_regularizer": null, "activity_regularizer": null, "kernel_constraint": null, "bias_constraint": null}, "name": "block3_conv1", "inbound_nodes": [[["block2_pool", 0, 0, {}]]]}, {"class_name": "Conv2D", "config": {"name": "block3_conv2", "trainable": false, "dtype": "float32", "filters": 256, "kernel_size": [3, 3], "strides": [1, 1], "padding": "same", "data_format": "channels_last", "dilation_rate": [1, 1], "activation": "relu", "use_bias": true, "kernel_initializer": {"class_name": "GlorotUniform", "config": {"seed": null}}, "bias_initializer": {"class_name": "Zeros", "config": {}}, "kernel_regularizer": null, "bias_regularizer": null, "activity_regularizer": null, "kernel_constraint": null, "bias_constraint": null}, "name": "block3_conv2", "inbound_nodes": [[["block3_conv1", 0, 0, {}]]]}, {"class_name": "Conv2D", "config": {"name": "block3_conv3", "trainable": false, "dtype": "float32", "filters": 256, "kernel_size": [3, 3], "strides": [1, 1], "padding": "same", "data_format": "channels_last", "dilation_rate": [1, 1], "activation": "relu", "use_bias": true, "kernel_initializer": {"class_name": "GlorotUniform", "config": {"seed": null}}, "bias_initializer": {"class_name": "Zeros", "config": {}}, "kernel_regularizer": null, "bias_regularizer": null, "activity_regularizer": null, "kernel_constraint": null, "bias_constraint": null}, "name": "block3_conv3", "inbound_nodes": [[["block3_conv2", 0, 0, {}]]]}, {"class_name": "MaxPooling2D", "config": {"name": "block3_pool", "trainable": false, "dtype": "float32", "pool_size": [2, 2], "padding": "valid", "strides": [2, 2], "data_format": "channels_last"}, "name": "block3_pool", "inbound_nodes": [[["block3_conv3", 0, 0, {}]]]}, {"class_name": "Conv2D", "config": {"name": "block4_conv1", "trainable": false, "dtype": "float32", "filters": 512, "kernel_size": [3, 3], "strides": [1, 1], "padding": "same", "data_format": "channels_last", "dilation_rate": [1, 1], "activation": "relu", "use_bias": true, "kernel_initializer": {"class_name": "GlorotUniform", "config": {"seed": null}}, "bias_initializer": {"class_name": "Zeros", "config": {}}, "kernel_regularizer": null, "bias_regularizer": null, "activity_regularizer": null, "kernel_constraint": null, "bias_constraint": null}, "name": "block4_conv1", "inbound_nodes": [[["block3_pool", 0, 0, {}]]]}, {"class_name": "Conv2D", "config": {"name": "block4_conv2", "trainable": false, "dtype": "float32", "filters": 512, "kernel_size": [3, 3], "strides": [1, 1], "padding": "same", "data_format": "channels_last", "dilation_rate": [1, 1], "activation": "relu", "use_bias": true, "kernel_initializer": {"class_name": "GlorotUniform", "config": {"seed": null}}, "bias_initializer": {"class_name": "Zeros", "config": {}}, "kernel_regularizer": null, "bias_regularizer": null, "activity_regularizer": null, "kernel_constraint": null, "bias_constraint": null}, "name": "block4_conv2", "inbound_nodes": [[["block4_conv1", 0, 0, {}]]]}, {"class_name": "Conv2D", "config": {"name": "block4_conv3", "trainable": false, "dtype": "float32", "filters": 512, "kernel_size": [3, 3], "strides": [1, 1], "padding": "same", "data_format": "channels_last", "dilation_rate": [1, 1], "activation": "relu", "use_bias": true, "kernel_initializer": {"class_name": "GlorotUniform", "config": {"seed": null}}, "bias_initializer": {"class_name": "Zeros", "config": {}}, "kernel_regularizer": null, "bias_regularizer": null, "activity_regularizer": null, "kernel_constraint": null, "bias_constraint": null}, "name": "block4_conv3", "inbound_nodes": [[["block4_conv2", 0, 0, {}]]]}, {"class_name": "MaxPooling2D", "config": {"name": "block4_pool", "trainable": false, "dtype": "float32", "pool_size": [2, 2], "padding": "valid", "strides": [2, 2], "data_format": "channels_last"}, "name": "block4_pool", "inbound_nodes": [[["block4_conv3", 0, 0, {}]]]}, {"class_name": "Conv2D", "config": {"name": "block5_conv1", "trainable": false, "dtype": "float32", "filters": 512, "kernel_size": [3, 3], "strides": [1, 1], "padding": "same", "data_format": "channels_last", "dilation_rate": [1, 1], "activation": "relu", "use_bias": true, "kernel_initializer": {"class_name": "GlorotUniform", "config": {"seed": null}}, "bias_initializer": {"class_name": "Zeros", "config": {}}, "kernel_regularizer": null, "bias_regularizer": null, "activity_regularizer": null, "kernel_constraint": null, "bias_constraint": null}, "name": "block5_conv1", "inbound_nodes": [[["block4_pool", 0, 0, {}]]]}, {"class_name": "Conv2D", "config": {"name": "block5_conv2", "trainable": false, "dtype": "float32", "filters": 512, "kernel_size": [3, 3], "strides": [1, 1], "padding": "same", "data_format": "channels_last", "dilation_rate": [1, 1], "activation": "relu", "use_bias": true, "kernel_initializer": {"class_name": "GlorotUniform", "config": {"seed": null}}, "bias_initializer": {"class_name": "Zeros", "config": {}}, "kernel_regularizer": null, "bias_regularizer": null, "activity_regularizer": null, "kernel_constraint": null, "bias_constraint": null}, "name": "block5_conv2", "inbound_nodes": [[["block5_conv1", 0, 0, {}]]]}, {"class_name": "Conv2D", "config": {"name": "block5_conv3", "trainable": false, "dtype": "float32", "filters": 512, "kernel_size": [3, 3], "strides": [1, 1], "padding": "same", "data_format": "channels_last", "dilation_rate": [1, 1], "activation": "relu", "use_bias": true, "kernel_initializer": {"class_name": "GlorotUniform", "config": {"seed": null}}, "bias_initializer": {"class_name": "Zeros", "config": {}}, "kernel_regularizer": null, "bias_regularizer": null, "activity_regularizer": null, "kernel_constraint": null, "bias_constraint": null}, "name": "block5_conv3", "inbound_nodes": [[["block5_conv2", 0, 0, {}]]]}, {"class_name": "MaxPooling2D", "config": {"name": "block5_pool", "trainable": false, "dtype": "float32", "pool_size": [2, 2], "padding": "valid", "strides": [2, 2], "data_format": "channels_last"}, "name": "block5_pool", "inbound_nodes": [[["block5_conv3", 0, 0, {}]]]}], "input_layers": [["input_1", 0, 0]], "output_layers": [["block5_pool", 0, 0]], "batch_input_shape": [null, 224, 224, 3]}}, {"class_name": "Flatten", "config": {"name": "flatten", "trainable": true, "dtype": "float32", "data_format": "channels_last"}}, {"class_name": "Dense", "config": {"name": "dense", "trainable": true, "dtype": "float32", "units": 256, "activation": "relu", "use_bias": true, "kernel_initializer": {"class_name": "GlorotUniform", "config": {"seed": null}}, "bias_initializer": {"class_name": "Zeros", "config": {}}, "kernel_regularizer": null, "bias_regularizer": null, "activity_regularizer": null, "kernel_constraint": null, "bias_constraint": null}}, {"class_name": "Dense", "config": {"name": "dense_1", "trainable": true, "dtype": "float32", "units": 1, "activation": "sigmoid", "use_bias": true, "kernel_initializer": {"class_name": "GlorotUniform", "config": {"seed": null}}, "bias_initializer": {"class_name": "Zeros", "config": {}}, "kernel_regularizer": null, "bias_regularizer": null, "activity_regularizer": null, "kernel_constraint": null, "bias_constraint": null}}], "build_input_shape": [null, 224, 224, 3]}}, "training_config": {"loss": "binary_crossentropy", "metrics": ["accuracy"], "weighted_metrics": null, "loss_weights": null, "sample_weight_mode": null, "optimizer_config": {"class_name": "Adam", "config": {"name": "Adam", "learning_rate": 0.0010000000474974513, "decay": 0.0, "beta_1": 0.8999999761581421, "beta_2": 0.9990000128746033, "epsilon": 1e-07, "amsgrad": false}}}}, "weightsManifest": [{"paths": ["group1-shard1of11.bin", "group1-shard2of11.bin", "group1-shard3of11.bin", "group1-shard4of11.bin", "group1-shard5of11.bin", "group1-shard6of11.bin", "group1-shard7of11.bin", "group1-shard8of11.bin", "group1-shard9of11.bin", "group1-shard10of11.bin", "group1-shard11of11.bin"], "weights": [{"name": "dense/kernel", "shape": [25088, 256], "dtype": "float32", "quantization": {"dtype": "uint16", "min": -0.08216131546249594, "scale": 2.607054274551672e-06, "original_dtype": "float32"}}, {"name": "dense/bias", "shape": [256], "dtype": "float32", "quantization": {"dtype": "uint16", "min": -0.011138603789039069, "scale": 2.762482028977225e-07, "original_dtype": "float32"}}, {"name": "dense_1/kernel", "shape": [256, 1], "dtype": "float32", "quantization": {"dtype": "uint16", "min": -0.149086041070144, "scale": 4.467399049207239e-06, "original_dtype": "float32"}}, {"name": "dense_1/bias", "shape": [1], "dtype": "float32", "quantization": {"dtype": "uint16", "min": 0.0008926762384362519, "scale": 1.0, "original_dtype": "float32"}}, {"name": "block1_conv1/kernel", "shape": [3, 3, 3, 64], "dtype": "float32", "quantization": {"dtype": "uint16", "min": -0.6713919575003199, "scale": 1.9530266093618403e-05, "original_dtype": "float32"}}, {"name": "block1_conv1/bias", "shape": [64], "dtype": "float32", "quantization": {"dtype": "uint16", "min": -0.015836623778700726, "scale": 3.1736720999400255e-05, "original_dtype": "float32"}}, {"name": "block1_conv2/kernel", "shape": [3, 3, 64, 64], "dtype": "float32", "quantization": {"dtype": "uint16", "min": -0.21561631580312074, "scale": 7.702508334337897e-06, "original_dtype": "float32"}}, {"name": "block1_conv2/bias", "shape": [64], "dtype": "float32", "quantization": {"dtype": "uint16", "min": -1.0271473394348298, "scale": 2.9486072611879717e-05, "original_dtype": "float32"}}, {"name": "block2_conv1/kernel", "shape": [3, 3, 64, 128], "dtype": "float32", "quantization": {"dtype": "uint16", "min": -0.3359444944756868, "scale": 1.1483318901920587e-05, "original_dtype": "float32"}}, {"name": "block2_conv1/bias", "shape": [128], "dtype": "float32", "quantization": {"dtype": "uint16", "min": -0.17922111571590005, "scale": 8.311511186564951e-06, "original_dtype": "float32"}}, {"name": "block2_conv2/kernel", "shape": [3, 3, 128, 128], "dtype": "float32", "quantization": {"dtype": "uint16", "min": -0.1819039347679835, "scale": 7.008165155185063e-06, "original_dtype": "float32"}}, {"name": "block2_conv2/bias", "shape": [128], "dtype": "float32", "quantization": {"dtype": "uint16", "min": -0.5953320278486198, "scale": 1.875474995585231e-05, "original_dtype": "float32"}}, {"name": "block3_conv1/kernel", "shape": [3, 3, 128, 256], "dtype": "float32", "quantization": {"dtype": "uint16", "min": -0.18305907535741248, "scale": 1.1100544257923259e-05, "original_dtype": "float32"}}, {"name": "block3_conv1/bias", "shape": [256], "dtype": "float32", "quantization": {"dtype": "uint16", "min": -0.20097989618046075, "scale": 8.399711463219825e-06, "original_dtype": "float32"}}, {"name": "block3_conv2/kernel", "shape": [3, 3, 256, 256], "dtype": "float32", "quantization": {"dtype": "uint16", "min": -0.17710256320397733, "scale": 9.711167582605545e-06, "original_dtype": "float32"}}, {"name": "block3_conv2/bias", "shape": [256], "dtype": "float32", "quantization": {"dtype": "uint16", "min": -0.1812474212034749, "scale": 6.959544645527585e-06, "original_dtype": "float32"}}, {"name": "block3_conv3/kernel", "shape": [3, 3, 256, 256], "dtype": "float32", "quantization": {"dtype": "uint16", "min": -0.1796861829599527, "scale": 8.716283432449803e-06, "original_dtype": "float32"}}, {"name": "block3_conv3/bias", "shape": [256], "dtype": "float32", "quantization": {"dtype": "uint16", "min": -0.14288321906827067, "scale": 1.1255964949446248e-05, "original_dtype": "float32"}}, {"name": "block4_conv1/kernel", "shape": [3, 3, 256, 512], "dtype": "float32", "quantization": {"dtype": "uint16", "min": -0.12409986605519714, "scale": 6.683174433474993e-06, "original_dtype": "float32"}}, {"name": "block4_conv1/bias", "shape": [512], "dtype": "float32", "quantization": {"dtype": "uint16", "min": -0.14548411936311378, "scale": 7.024146357817391e-06, "original_dtype": "float32"}}, {"name": "block4_conv2/kernel", "shape": [3, 3, 512, 512], "dtype": "float32", "quantization": {"dtype": "uint16", "min": -0.10524743543722505, "scale": 6.758327582175884e-06, "original_dtype": "float32"}}, {"name": "block4_conv2/bias", "shape": [512], "dtype": "float32", "quantization": {"dtype": "uint16", "min": -0.08428477057741611, "scale": 4.0689760827177806e-06, "original_dtype": "float32"}}, {"name": "block4_conv3/kernel", "shape": [3, 3, 512, 512], "dtype": "float32", "quantization": {"dtype": "uint16", "min": -0.12739744283332244, "scale": 5.853854837721014e-06, "original_dtype": "float32"}}, {"name": "block4_conv3/bias", "shape": [512], "dtype": "float32", "quantization": {"dtype": "uint16", "min": -0.19836235473400998, "scale": 8.179216342322694e-06, "original_dtype": "float32"}}, {"name": "block5_conv1/kernel", "shape": [3, 3, 512, 512], "dtype": "float32", "quantization": {"dtype": "uint16", "min": -0.11329818661069947, "scale": 4.634820479063181e-06, "original_dtype": "float32"}}, {"name": "block5_conv1/bias", "shape": [512], "dtype": "float32", "quantization": {"dtype": "uint16", "min": -0.35080042188924465, "scale": 1.5114844322859435e-05, "original_dtype": "float32"}}, {"name": "block5_conv2/kernel", "shape": [3, 3, 512, 512], "dtype": "float32", "quantization": {"dtype": "uint16", "min": -0.1368110310131383, "scale": 5.218011023042003e-06, "original_dtype": "float32"}}, {"name": "block5_conv2/bias", "shape": [512], "dtype": "float32", "quantization": {"dtype": "uint16", "min": -0.9171048119692614, "scale": 2.5587434070901775e-05, "original_dtype": "float32"}}, {"name": "block5_conv3/kernel", "shape": [3, 3, 512, 512], "dtype": "float32", "quantization": {"dtype": "uint16", "min": -0.09288503755882475, "scale": 5.7966199175502214e-06, "original_dtype": "float32"}}, {"name": "block5_conv3/bias", "shape": [512], "dtype": "float32", "quantization": {"dtype": "uint16", "min": -0.5004226900796883, "scale": 0.00015155139009075962, "original_dtype": "float32"}}]}]}