{"format": "layers-model", "generatedBy": "keras v2.3.0-tf", "convertedBy": "TensorFlow.js Converter v2.0.1", "modelTopology": {"keras_version": "2.3.0-tf", "backend": "tensorflow", "model_config": {"class_name": "Model", "config": {"name": "model", "layers": [{"class_name": "InputLayer", "config": {"batch_input_shape": [null, 224, 224, 3], "dtype": "float32", "sparse": false, "ragged": false, "name": "input_1"}, "name": "input_1", "inbound_nodes": []}, {"class_name": "ZeroPadding2D", "config": {"name": "zero_padding2d", "trainable": false, "dtype": "float32", "padding": [[3, 3], [3, 3]], "data_format": "channels_last"}, "name": "zero_padding2d", "inbound_nodes": [[["input_1", 0, 0, {}]]]}, {"class_name": "Conv2D", "config": {"name": "conv1/conv", "trainable": false, "dtype": "float32", "filters": 64, "kernel_size": [7, 7], "strides": [2, 2], "padding": "valid", "data_format": "channels_last", "dilation_rate": [1, 1], "activation": "linear", "use_bias": false, "kernel_initializer": {"class_name": "GlorotUniform", "config": {"seed": null}}, "bias_initializer": {"class_name": "Zeros", "config": {}}, "kernel_regularizer": null, "bias_regularizer": null, "activity_regularizer": null, "kernel_constraint": null, "bias_constraint": null}, "name": "conv1/conv", "inbound_nodes": [[["zero_padding2d", 0, 0, {}]]]}, {"class_name": "BatchNormalization", "config": {"name": "conv1/bn", "trainable": false, "dtype": "float32", "axis": [3], "momentum": 0.99, "epsilon": 1.001e-05, "center": true, "scale": true, "beta_initializer": {"class_name": "Zeros", "config": {}}, "gamma_initializer": {"class_name": "Ones", "config": {}}, "moving_mean_initializer": {"class_name": "Zeros", "config": {}}, "moving_variance_initializer": {"class_name": "Ones", "config": {}}, "beta_regularizer": null, "gamma_regularizer": null, "beta_constraint": null, "gamma_constraint": null}, "name": "conv1/bn", "inbound_nodes": [[["conv1/conv", 0, 0, {}]]]}, {"class_name": "Activation", "config": {"name": "conv1/relu", "trainable": false, "dtype": "float32", "activation": "relu"}, "name": "conv1/relu", "inbound_nodes": [[["conv1/bn", 0, 0, {}]]]}, {"class_name": "ZeroPadding2D", "config": {"name": "zero_padding2d_1", "trainable": false, "dtype": "float32", "padding": [[1, 1], [1, 1]], "data_format": "channels_last"}, "name": "zero_padding2d_1", "inbound_nodes": [[["conv1/relu", 0, 0, {}]]]}, {"class_name": "MaxPooling2D", "config": {"name": "pool1", "trainable": false, "dtype": "float32", "pool_size": [3, 3], "padding": "valid", "strides": [2, 2], "data_format": "channels_last"}, "name": "pool1", "inbound_nodes": [[["zero_padding2d_1", 0, 0, {}]]]}, {"class_name": "BatchNormalization", "config": {"name": "conv2_block1_0_bn", "trainable": false, "dtype": "float32", "axis": [3], "momentum": 0.99, "epsilon": 1.001e-05, "center": true, "scale": true, "beta_initializer": {"class_name": "Zeros", "config": {}}, "gamma_initializer": {"class_name": "Ones", "config": {}}, "moving_mean_initializer": {"class_name": "Zeros", "config": {}}, "moving_variance_initializer": {"class_name": "Ones", "config": {}}, "beta_regularizer": null, "gamma_regularizer": null, "beta_constraint": null, "gamma_constraint": null}, "name": "conv2_block1_0_bn", "inbound_nodes": [[["pool1", 0, 0, {}]]]}, {"class_name": "Activation", "config": {"name": "conv2_block1_0_relu", "trainable": false, "dtype": "float32", "activation": "relu"}, "name": "conv2_block1_0_relu", "inbound_nodes": [[["conv2_block1_0_bn", 0, 0, {}]]]}, {"class_name": "Conv2D", "config": {"name": "conv2_block1_1_conv", "trainable": false, "dtype": "float32", "filters": 128, "kernel_size": [1, 1], "strides": [1, 1], "padding": "valid", "data_format": "channels_last", "dilation_rate": [1, 1], "activation": "linear", "use_bias": false, "kernel_initializer": {"class_name": "GlorotUniform", "config": {"seed": null}}, "bias_initializer": {"class_name": "Zeros", "config": {}}, "kernel_regularizer": null, "bias_regularizer": null, "activity_regularizer": null, "kernel_constraint": null, "bias_constraint": null}, "name": "conv2_block1_1_conv", "inbound_nodes": [[["conv2_block1_0_relu", 0, 0, {}]]]}, {"class_name": "BatchNormalization", "config": {"name": "conv2_block1_1_bn", "trainable": false, "dtype": "float32", "axis": [3], "momentum": 0.99, "epsilon": 1.001e-05, "center": true, "scale": true, "beta_initializer": {"class_name": "Zeros", "config": {}}, "gamma_initializer": {"class_name": "Ones", "config": {}}, "moving_mean_initializer": {"class_name": "Zeros", "config": {}}, "moving_variance_initializer": {"class_name": "Ones", "config": {}}, "beta_regularizer": null, "gamma_regularizer": null, "beta_constraint": null, "gamma_constraint": null}, "name": "conv2_block1_1_bn", "inbound_nodes": [[["conv2_block1_1_conv", 0, 0, {}]]]}, {"class_name": "Activation", "config": {"name": "conv2_block1_1_relu", "trainable": false, "dtype": "float32", "activation": "relu"}, "name": "conv2_block1_1_relu", "inbound_nodes": [[["conv2_block1_1_bn", 0, 0, {}]]]}, {"class_name": "Conv2D", "config": {"name": "conv2_block1_2_conv", "trainable": false, "dtype": "float32", "filters": 32, "kernel_size": [3, 3], "strides": [1, 1], "padding": "same", "data_format": "channels_last", "dilation_rate": [1, 1], "activation": "linear", "use_bias": false, "kernel_initializer": {"class_name": "GlorotUniform", "config": {"seed": null}}, "bias_initializer": {"class_name": "Zeros", "config": {}}, "kernel_regularizer": null, "bias_regularizer": null, "activity_regularizer": null, "kernel_constraint": null, "bias_constraint": null}, "name": "conv2_block1_2_conv", "inbound_nodes": [[["conv2_block1_1_relu", 0, 0, {}]]]}, {"class_name": "Concatenate", "config": {"name": "conv2_block1_concat", "trainable": false, "dtype": "float32", "axis": 3}, "name": "conv2_block1_concat", "inbound_nodes": [[["pool1", 0, 0, {}], ["conv2_block1_2_conv", 0, 0, {}]]]}, {"class_name": "BatchNormalization", "config": {"name": "conv2_block2_0_bn", "trainable": false, "dtype": "float32", "axis": [3], "momentum": 0.99, "epsilon": 1.001e-05, "center": true, "scale": true, "beta_initializer": {"class_name": "Zeros", "config": {}}, "gamma_initializer": {"class_name": "Ones", "config": {}}, "moving_mean_initializer": {"class_name": "Zeros", "config": {}}, "moving_variance_initializer": {"class_name": "Ones", "config": {}}, "beta_regularizer": null, "gamma_regularizer": null, "beta_constraint": null, "gamma_constraint": null}, "name": "conv2_block2_0_bn", "inbound_nodes": [[["conv2_block1_concat", 0, 0, {}]]]}, {"class_name": "Activation", "config": {"name": "conv2_block2_0_relu", "trainable": false, "dtype": "float32", "activation": "relu"}, "name": "conv2_block2_0_relu", "inbound_nodes": [[["conv2_block2_0_bn", 0, 0, {}]]]}, {"class_name": "Conv2D", "config": {"name": "conv2_block2_1_conv", "trainable": false, "dtype": "float32", "filters": 128, "kernel_size": [1, 1], "strides": [1, 1], "padding": "valid", "data_format": "channels_last", "dilation_rate": [1, 1], "activation": "linear", "use_bias": false, "kernel_initializer": {"class_name": "GlorotUniform", "config": {"seed": null}}, "bias_initializer": {"class_name": "Zeros", "config": {}}, "kernel_regularizer": null, "bias_regularizer": null, "activity_regularizer": null, "kernel_constraint": null, "bias_constraint": null}, "name": "conv2_block2_1_conv", "inbound_nodes": [[["conv2_block2_0_relu", 0, 0, {}]]]}, {"class_name": "BatchNormalization", "config": {"name": "conv2_block2_1_bn", "trainable": false, "dtype": "float32", "axis": [3], "momentum": 0.99, "epsilon": 1.001e-05, "center": true, "scale": true, "beta_initializer": {"class_name": "Zeros", "config": {}}, "gamma_initializer": {"class_name": "Ones", "config": {}}, "moving_mean_initializer": {"class_name": "Zeros", "config": {}}, "moving_variance_initializer": {"class_name": "Ones", "config": {}}, "beta_regularizer": null, "gamma_regularizer": null, "beta_constraint": null, "gamma_constraint": null}, "name": "conv2_block2_1_bn", "inbound_nodes": [[["conv2_block2_1_conv", 0, 0, {}]]]}, {"class_name": "Activation", "config": {"name": "conv2_block2_1_relu", "trainable": false, "dtype": "float32", "activation": "relu"}, "name": "conv2_block2_1_relu", "inbound_nodes": [[["conv2_block2_1_bn", 0, 0, {}]]]}, {"class_name": "Conv2D", "config": {"name": "conv2_block2_2_conv", "trainable": false, "dtype": "float32", "filters": 32, "kernel_size": [3, 3], "strides": [1, 1], "padding": "same", "data_format": "channels_last", "dilation_rate": [1, 1], "activation": "linear", "use_bias": false, "kernel_initializer": {"class_name": "GlorotUniform", "config": {"seed": null}}, "bias_initializer": {"class_name": "Zeros", "config": {}}, "kernel_regularizer": null, "bias_regularizer": null, "activity_regularizer": null, "kernel_constraint": null, "bias_constraint": null}, "name": "conv2_block2_2_conv", "inbound_nodes": [[["conv2_block2_1_relu", 0, 0, {}]]]}, {"class_name": "Concatenate", "config": {"name": "conv2_block2_concat", "trainable": false, "dtype": "float32", "axis": 3}, "name": "conv2_block2_concat", "inbound_nodes": [[["conv2_block1_concat", 0, 0, {}], ["conv2_block2_2_conv", 0, 0, {}]]]}, {"class_name": "BatchNormalization", "config": {"name": "conv2_block3_0_bn", "trainable": false, "dtype": "float32", "axis": [3], "momentum": 0.99, "epsilon": 1.001e-05, "center": true, "scale": true, "beta_initializer": {"class_name": "Zeros", "config": {}}, "gamma_initializer": {"class_name": "Ones", "config": {}}, "moving_mean_initializer": {"class_name": "Zeros", "config": {}}, "moving_variance_initializer": {"class_name": "Ones", "config": {}}, "beta_regularizer": null, "gamma_regularizer": null, "beta_constraint": null, "gamma_constraint": null}, "name": "conv2_block3_0_bn", "inbound_nodes": [[["conv2_block2_concat", 0, 0, {}]]]}, {"class_name": "Activation", "config": {"name": "conv2_block3_0_relu", "trainable": false, "dtype": "float32", "activation": "relu"}, "name": "conv2_block3_0_relu", "inbound_nodes": [[["conv2_block3_0_bn", 0, 0, {}]]]}, {"class_name": "Conv2D", "config": {"name": "conv2_block3_1_conv", "trainable": false, "dtype": "float32", "filters": 128, "kernel_size": [1, 1], "strides": [1, 1], "padding": "valid", "data_format": "channels_last", "dilation_rate": [1, 1], "activation": "linear", "use_bias": false, "kernel_initializer": {"class_name": "GlorotUniform", "config": {"seed": null}}, "bias_initializer": {"class_name": "Zeros", "config": {}}, "kernel_regularizer": null, "bias_regularizer": null, "activity_regularizer": null, "kernel_constraint": null, "bias_constraint": null}, "name": "conv2_block3_1_conv", "inbound_nodes": [[["conv2_block3_0_relu", 0, 0, {}]]]}, {"class_name": "BatchNormalization", "config": {"name": "conv2_block3_1_bn", "trainable": false, "dtype": "float32", "axis": [3], "momentum": 0.99, "epsilon": 1.001e-05, "center": true, "scale": true, "beta_initializer": {"class_name": "Zeros", "config": {}}, "gamma_initializer": {"class_name": "Ones", "config": {}}, "moving_mean_initializer": {"class_name": "Zeros", "config": {}}, "moving_variance_initializer": {"class_name": "Ones", "config": {}}, "beta_regularizer": null, "gamma_regularizer": null, "beta_constraint": null, "gamma_constraint": null}, "name": "conv2_block3_1_bn", "inbound_nodes": [[["conv2_block3_1_conv", 0, 0, {}]]]}, {"class_name": "Activation", "config": {"name": "conv2_block3_1_relu", "trainable": false, "dtype": "float32", "activation": "relu"}, "name": "conv2_block3_1_relu", "inbound_nodes": [[["conv2_block3_1_bn", 0, 0, {}]]]}, {"class_name": "Conv2D", "config": {"name": "conv2_block3_2_conv", "trainable": false, "dtype": "float32", "filters": 32, "kernel_size": [3, 3], "strides": [1, 1], "padding": "same", "data_format": "channels_last", "dilation_rate": [1, 1], "activation": "linear", "use_bias": false, "kernel_initializer": {"class_name": "GlorotUniform", "config": {"seed": null}}, "bias_initializer": {"class_name": "Zeros", "config": {}}, "kernel_regularizer": null, "bias_regularizer": null, "activity_regularizer": null, "kernel_constraint": null, "bias_constraint": null}, "name": "conv2_block3_2_conv", "inbound_nodes": [[["conv2_block3_1_relu", 0, 0, {}]]]}, {"class_name": "Concatenate", "config": {"name": "conv2_block3_concat", "trainable": false, "dtype": "float32", "axis": 3}, "name": "conv2_block3_concat", "inbound_nodes": [[["conv2_block2_concat", 0, 0, {}], ["conv2_block3_2_conv", 0, 0, {}]]]}, {"class_name": "BatchNormalization", "config": {"name": "conv2_block4_0_bn", "trainable": false, "dtype": "float32", "axis": [3], "momentum": 0.99, "epsilon": 1.001e-05, "center": true, "scale": true, "beta_initializer": {"class_name": "Zeros", "config": {}}, "gamma_initializer": {"class_name": "Ones", "config": {}}, "moving_mean_initializer": {"class_name": "Zeros", "config": {}}, "moving_variance_initializer": {"class_name": "Ones", "config": {}}, "beta_regularizer": null, "gamma_regularizer": null, "beta_constraint": null, "gamma_constraint": null}, "name": "conv2_block4_0_bn", "inbound_nodes": [[["conv2_block3_concat", 0, 0, {}]]]}, {"class_name": "Activation", "config": {"name": "conv2_block4_0_relu", "trainable": false, "dtype": "float32", "activation": "relu"}, "name": "conv2_block4_0_relu", "inbound_nodes": [[["conv2_block4_0_bn", 0, 0, {}]]]}, {"class_name": "Conv2D", "config": {"name": "conv2_block4_1_conv", "trainable": false, "dtype": "float32", "filters": 128, "kernel_size": [1, 1], "strides": [1, 1], "padding": "valid", "data_format": "channels_last", "dilation_rate": [1, 1], "activation": "linear", "use_bias": false, "kernel_initializer": {"class_name": "GlorotUniform", "config": {"seed": null}}, "bias_initializer": {"class_name": "Zeros", "config": {}}, "kernel_regularizer": null, "bias_regularizer": null, "activity_regularizer": null, "kernel_constraint": null, "bias_constraint": null}, "name": "conv2_block4_1_conv", "inbound_nodes": [[["conv2_block4_0_relu", 0, 0, {}]]]}, {"class_name": "BatchNormalization", "config": {"name": "conv2_block4_1_bn", "trainable": false, "dtype": "float32", "axis": [3], "momentum": 0.99, "epsilon": 1.001e-05, "center": true, "scale": true, "beta_initializer": {"class_name": "Zeros", "config": {}}, "gamma_initializer": {"class_name": "Ones", "config": {}}, "moving_mean_initializer": {"class_name": "Zeros", "config": {}}, "moving_variance_initializer": {"class_name": "Ones", "config": {}}, "beta_regularizer": null, "gamma_regularizer": null, "beta_constraint": null, "gamma_constraint": null}, "name": "conv2_block4_1_bn", "inbound_nodes": [[["conv2_block4_1_conv", 0, 0, {}]]]}, {"class_name": "Activation", "config": {"name": "conv2_block4_1_relu", "trainable": false, "dtype": "float32", "activation": "relu"}, "name": "conv2_block4_1_relu", "inbound_nodes": [[["conv2_block4_1_bn", 0, 0, {}]]]}, {"class_name": "Conv2D", "config": {"name": "conv2_block4_2_conv", "trainable": false, "dtype": "float32", "filters": 32, "kernel_size": [3, 3], "strides": [1, 1], "padding": "same", "data_format": "channels_last", "dilation_rate": [1, 1], "activation": "linear", "use_bias": false, "kernel_initializer": {"class_name": "GlorotUniform", "config": {"seed": null}}, "bias_initializer": {"class_name": "Zeros", "config": {}}, "kernel_regularizer": null, "bias_regularizer": null, "activity_regularizer": null, "kernel_constraint": null, "bias_constraint": null}, "name": "conv2_block4_2_conv", "inbound_nodes": [[["conv2_block4_1_relu", 0, 0, {}]]]}, {"class_name": "Concatenate", "config": {"name": "conv2_block4_concat", "trainable": false, "dtype": "float32", "axis": 3}, "name": "conv2_block4_concat", "inbound_nodes": [[["conv2_block3_concat", 0, 0, {}], ["conv2_block4_2_conv", 0, 0, {}]]]}, {"class_name": "BatchNormalization", "config": {"name": "conv2_block5_0_bn", "trainable": false, "dtype": "float32", "axis": [3], "momentum": 0.99, "epsilon": 1.001e-05, "center": true, "scale": true, "beta_initializer": {"class_name": "Zeros", "config": {}}, "gamma_initializer": {"class_name": "Ones", "config": {}}, "moving_mean_initializer": {"class_name": "Zeros", "config": {}}, "moving_variance_initializer": {"class_name": "Ones", "config": {}}, "beta_regularizer": null, "gamma_regularizer": null, "beta_constraint": null, "gamma_constraint": null}, "name": "conv2_block5_0_bn", "inbound_nodes": [[["conv2_block4_concat", 0, 0, {}]]]}, {"class_name": "Activation", "config": {"name": "conv2_block5_0_relu", "trainable": false, "dtype": "float32", "activation": "relu"}, "name": "conv2_block5_0_relu", "inbound_nodes": [[["conv2_block5_0_bn", 0, 0, {}]]]}, {"class_name": "Conv2D", "config": {"name": "conv2_block5_1_conv", "trainable": false, "dtype": "float32", "filters": 128, "kernel_size": [1, 1], "strides": [1, 1], "padding": "valid", "data_format": "channels_last", "dilation_rate": [1, 1], "activation": "linear", "use_bias": false, "kernel_initializer": {"class_name": "GlorotUniform", "config": {"seed": null}}, "bias_initializer": {"class_name": "Zeros", "config": {}}, "kernel_regularizer": null, "bias_regularizer": null, "activity_regularizer": null, "kernel_constraint": null, "bias_constraint": null}, "name": "conv2_block5_1_conv", "inbound_nodes": [[["conv2_block5_0_relu", 0, 0, {}]]]}, {"class_name": "BatchNormalization", "config": {"name": "conv2_block5_1_bn", "trainable": false, "dtype": "float32", "axis": [3], "momentum": 0.99, "epsilon": 1.001e-05, "center": true, "scale": true, "beta_initializer": {"class_name": "Zeros", "config": {}}, "gamma_initializer": {"class_name": "Ones", "config": {}}, "moving_mean_initializer": {"class_name": "Zeros", "config": {}}, "moving_variance_initializer": {"class_name": "Ones", "config": {}}, "beta_regularizer": null, "gamma_regularizer": null, "beta_constraint": null, "gamma_constraint": null}, "name": "conv2_block5_1_bn", "inbound_nodes": [[["conv2_block5_1_conv", 0, 0, {}]]]}, {"class_name": "Activation", "config": {"name": "conv2_block5_1_relu", "trainable": false, "dtype": "float32", "activation": "relu"}, "name": "conv2_block5_1_relu", "inbound_nodes": [[["conv2_block5_1_bn", 0, 0, {}]]]}, {"class_name": "Conv2D", "config": {"name": "conv2_block5_2_conv", "trainable": false, "dtype": "float32", "filters": 32, "kernel_size": [3, 3], "strides": [1, 1], "padding": "same", "data_format": "channels_last", "dilation_rate": [1, 1], "activation": "linear", "use_bias": false, "kernel_initializer": {"class_name": "GlorotUniform", "config": {"seed": null}}, "bias_initializer": {"class_name": "Zeros", "config": {}}, "kernel_regularizer": null, "bias_regularizer": null, "activity_regularizer": null, "kernel_constraint": null, "bias_constraint": null}, "name": "conv2_block5_2_conv", "inbound_nodes": [[["conv2_block5_1_relu", 0, 0, {}]]]}, {"class_name": "Concatenate", "config": {"name": "conv2_block5_concat", "trainable": false, "dtype": "float32", "axis": 3}, "name": "conv2_block5_concat", "inbound_nodes": [[["conv2_block4_concat", 0, 0, {}], ["conv2_block5_2_conv", 0, 0, {}]]]}, {"class_name": "BatchNormalization", "config": {"name": "conv2_block6_0_bn", "trainable": false, "dtype": "float32", "axis": [3], "momentum": 0.99, "epsilon": 1.001e-05, "center": true, "scale": true, "beta_initializer": {"class_name": "Zeros", "config": {}}, "gamma_initializer": {"class_name": "Ones", "config": {}}, "moving_mean_initializer": {"class_name": "Zeros", "config": {}}, "moving_variance_initializer": {"class_name": "Ones", "config": {}}, "beta_regularizer": null, "gamma_regularizer": null, "beta_constraint": null, "gamma_constraint": null}, "name": "conv2_block6_0_bn", "inbound_nodes": [[["conv2_block5_concat", 0, 0, {}]]]}, {"class_name": "Activation", "config": {"name": "conv2_block6_0_relu", "trainable": false, "dtype": "float32", "activation": "relu"}, "name": "conv2_block6_0_relu", "inbound_nodes": [[["conv2_block6_0_bn", 0, 0, {}]]]}, {"class_name": "Conv2D", "config": {"name": "conv2_block6_1_conv", "trainable": false, "dtype": "float32", "filters": 128, "kernel_size": [1, 1], "strides": [1, 1], "padding": "valid", "data_format": "channels_last", "dilation_rate": [1, 1], "activation": "linear", "use_bias": false, "kernel_initializer": {"class_name": "GlorotUniform", "config": {"seed": null}}, "bias_initializer": {"class_name": "Zeros", "config": {}}, "kernel_regularizer": null, "bias_regularizer": null, "activity_regularizer": null, "kernel_constraint": null, "bias_constraint": null}, "name": "conv2_block6_1_conv", "inbound_nodes": [[["conv2_block6_0_relu", 0, 0, {}]]]}, {"class_name": "BatchNormalization", "config": {"name": "conv2_block6_1_bn", "trainable": false, "dtype": "float32", "axis": [3], "momentum": 0.99, "epsilon": 1.001e-05, "center": true, "scale": true, "beta_initializer": {"class_name": "Zeros", "config": {}}, "gamma_initializer": {"class_name": "Ones", "config": {}}, "moving_mean_initializer": {"class_name": "Zeros", "config": {}}, "moving_variance_initializer": {"class_name": "Ones", "config": {}}, "beta_regularizer": null, "gamma_regularizer": null, "beta_constraint": null, "gamma_constraint": null}, "name": "conv2_block6_1_bn", "inbound_nodes": [[["conv2_block6_1_conv", 0, 0, {}]]]}, {"class_name": "Activation", "config": {"name": "conv2_block6_1_relu", "trainable": false, "dtype": "float32", "activation": "relu"}, "name": "conv2_block6_1_relu", "inbound_nodes": [[["conv2_block6_1_bn", 0, 0, {}]]]}, {"class_name": "Conv2D", "config": {"name": "conv2_block6_2_conv", "trainable": false, "dtype": "float32", "filters": 32, "kernel_size": [3, 3], "strides": [1, 1], "padding": "same", "data_format": "channels_last", "dilation_rate": [1, 1], "activation": "linear", "use_bias": false, "kernel_initializer": {"class_name": "GlorotUniform", "config": {"seed": null}}, "bias_initializer": {"class_name": "Zeros", "config": {}}, "kernel_regularizer": null, "bias_regularizer": null, "activity_regularizer": null, "kernel_constraint": null, "bias_constraint": null}, "name": "conv2_block6_2_conv", "inbound_nodes": [[["conv2_block6_1_relu", 0, 0, {}]]]}, {"class_name": "Concatenate", "config": {"name": "conv2_block6_concat", "trainable": false, "dtype": "float32", "axis": 3}, "name": "conv2_block6_concat", "inbound_nodes": [[["conv2_block5_concat", 0, 0, {}], ["conv2_block6_2_conv", 0, 0, {}]]]}, {"class_name": "BatchNormalization", "config": {"name": "pool2_bn", "trainable": false, "dtype": "float32", "axis": [3], "momentum": 0.99, "epsilon": 1.001e-05, "center": true, "scale": true, "beta_initializer": {"class_name": "Zeros", "config": {}}, "gamma_initializer": {"class_name": "Ones", "config": {}}, "moving_mean_initializer": {"class_name": "Zeros", "config": {}}, "moving_variance_initializer": {"class_name": "Ones", "config": {}}, "beta_regularizer": null, "gamma_regularizer": null, "beta_constraint": null, "gamma_constraint": null}, "name": "pool2_bn", "inbound_nodes": [[["conv2_block6_concat", 0, 0, {}]]]}, {"class_name": "Activation", "config": {"name": "pool2_relu", "trainable": false, "dtype": "float32", "activation": "relu"}, "name": "pool2_relu", "inbound_nodes": [[["pool2_bn", 0, 0, {}]]]}, {"class_name": "Conv2D", "config": {"name": "pool2_conv", "trainable": false, "dtype": "float32", "filters": 128, "kernel_size": [1, 1], "strides": [1, 1], "padding": "valid", "data_format": "channels_last", "dilation_rate": [1, 1], "activation": "linear", "use_bias": false, "kernel_initializer": {"class_name": "GlorotUniform", "config": {"seed": null}}, "bias_initializer": {"class_name": "Zeros", "config": {}}, "kernel_regularizer": null, "bias_regularizer": null, "activity_regularizer": null, "kernel_constraint": null, "bias_constraint": null}, "name": "pool2_conv", "inbound_nodes": [[["pool2_relu", 0, 0, {}]]]}, {"class_name": "AveragePooling2D", "config": {"name": "pool2_pool", "trainable": false, "dtype": "float32", "pool_size": [2, 2], "padding": "valid", "strides": [2, 2], "data_format": "channels_last"}, "name": "pool2_pool", "inbound_nodes": [[["pool2_conv", 0, 0, {}]]]}, {"class_name": "BatchNormalization", "config": {"name": "conv3_block1_0_bn", "trainable": false, "dtype": "float32", "axis": [3], "momentum": 0.99, "epsilon": 1.001e-05, "center": true, "scale": true, "beta_initializer": {"class_name": "Zeros", "config": {}}, "gamma_initializer": {"class_name": "Ones", "config": {}}, "moving_mean_initializer": {"class_name": "Zeros", "config": {}}, "moving_variance_initializer": {"class_name": "Ones", "config": {}}, "beta_regularizer": null, "gamma_regularizer": null, "beta_constraint": null, "gamma_constraint": null}, "name": "conv3_block1_0_bn", "inbound_nodes": [[["pool2_pool", 0, 0, {}]]]}, {"class_name": "Activation", "config": {"name": "conv3_block1_0_relu", "trainable": false, "dtype": "float32", "activation": "relu"}, "name": "conv3_block1_0_relu", "inbound_nodes": [[["conv3_block1_0_bn", 0, 0, {}]]]}, {"class_name": "Conv2D", "config": {"name": "conv3_block1_1_conv", "trainable": false, "dtype": "float32", "filters": 128, "kernel_size": [1, 1], "strides": [1, 1], "padding": "valid", "data_format": "channels_last", "dilation_rate": [1, 1], "activation": "linear", "use_bias": false, "kernel_initializer": {"class_name": "GlorotUniform", "config": {"seed": null}}, "bias_initializer": {"class_name": "Zeros", "config": {}}, "kernel_regularizer": null, "bias_regularizer": null, "activity_regularizer": null, "kernel_constraint": null, "bias_constraint": null}, "name": "conv3_block1_1_conv", "inbound_nodes": [[["conv3_block1_0_relu", 0, 0, {}]]]}, {"class_name": "BatchNormalization", "config": {"name": "conv3_block1_1_bn", "trainable": false, "dtype": "float32", "axis": [3], "momentum": 0.99, "epsilon": 1.001e-05, "center": true, "scale": true, "beta_initializer": {"class_name": "Zeros", "config": {}}, "gamma_initializer": {"class_name": "Ones", "config": {}}, "moving_mean_initializer": {"class_name": "Zeros", "config": {}}, "moving_variance_initializer": {"class_name": "Ones", "config": {}}, "beta_regularizer": null, "gamma_regularizer": null, "beta_constraint": null, "gamma_constraint": null}, "name": "conv3_block1_1_bn", "inbound_nodes": [[["conv3_block1_1_conv", 0, 0, {}]]]}, {"class_name": "Activation", "config": {"name": "conv3_block1_1_relu", "trainable": false, "dtype": "float32", "activation": "relu"}, "name": "conv3_block1_1_relu", "inbound_nodes": [[["conv3_block1_1_bn", 0, 0, {}]]]}, {"class_name": "Conv2D", "config": {"name": "conv3_block1_2_conv", "trainable": false, "dtype": "float32", "filters": 32, "kernel_size": [3, 3], "strides": [1, 1], "padding": "same", "data_format": "channels_last", "dilation_rate": [1, 1], "activation": "linear", "use_bias": false, "kernel_initializer": {"class_name": "GlorotUniform", "config": {"seed": null}}, "bias_initializer": {"class_name": "Zeros", "config": {}}, "kernel_regularizer": null, "bias_regularizer": null, "activity_regularizer": null, "kernel_constraint": null, "bias_constraint": null}, "name": "conv3_block1_2_conv", "inbound_nodes": [[["conv3_block1_1_relu", 0, 0, {}]]]}, {"class_name": "Concatenate", "config": {"name": "conv3_block1_concat", "trainable": false, "dtype": "float32", "axis": 3}, "name": "conv3_block1_concat", "inbound_nodes": [[["pool2_pool", 0, 0, {}], ["conv3_block1_2_conv", 0, 0, {}]]]}, {"class_name": "BatchNormalization", "config": {"name": "conv3_block2_0_bn", "trainable": false, "dtype": "float32", "axis": [3], "momentum": 0.99, "epsilon": 1.001e-05, "center": true, "scale": true, "beta_initializer": {"class_name": "Zeros", "config": {}}, "gamma_initializer": {"class_name": "Ones", "config": {}}, "moving_mean_initializer": {"class_name": "Zeros", "config": {}}, "moving_variance_initializer": {"class_name": "Ones", "config": {}}, "beta_regularizer": null, "gamma_regularizer": null, "beta_constraint": null, "gamma_constraint": null}, "name": "conv3_block2_0_bn", "inbound_nodes": [[["conv3_block1_concat", 0, 0, {}]]]}, {"class_name": "Activation", "config": {"name": "conv3_block2_0_relu", "trainable": false, "dtype": "float32", "activation": "relu"}, "name": "conv3_block2_0_relu", "inbound_nodes": [[["conv3_block2_0_bn", 0, 0, {}]]]}, {"class_name": "Conv2D", "config": {"name": "conv3_block2_1_conv", "trainable": false, "dtype": "float32", "filters": 128, "kernel_size": [1, 1], "strides": [1, 1], "padding": "valid", "data_format": "channels_last", "dilation_rate": [1, 1], "activation": "linear", "use_bias": false, "kernel_initializer": {"class_name": "GlorotUniform", "config": {"seed": null}}, "bias_initializer": {"class_name": "Zeros", "config": {}}, "kernel_regularizer": null, "bias_regularizer": null, "activity_regularizer": null, "kernel_constraint": null, "bias_constraint": null}, "name": "conv3_block2_1_conv", "inbound_nodes": [[["conv3_block2_0_relu", 0, 0, {}]]]}, {"class_name": "BatchNormalization", "config": {"name": "conv3_block2_1_bn", "trainable": false, "dtype": "float32", "axis": [3], "momentum": 0.99, "epsilon": 1.001e-05, "center": true, "scale": true, "beta_initializer": {"class_name": "Zeros", "config": {}}, "gamma_initializer": {"class_name": "Ones", "config": {}}, "moving_mean_initializer": {"class_name": "Zeros", "config": {}}, "moving_variance_initializer": {"class_name": "Ones", "config": {}}, "beta_regularizer": null, "gamma_regularizer": null, "beta_constraint": null, "gamma_constraint": null}, "name": "conv3_block2_1_bn", "inbound_nodes": [[["conv3_block2_1_conv", 0, 0, {}]]]}, {"class_name": "Activation", "config": {"name": "conv3_block2_1_relu", "trainable": false, "dtype": "float32", "activation": "relu"}, "name": "conv3_block2_1_relu", "inbound_nodes": [[["conv3_block2_1_bn", 0, 0, {}]]]}, {"class_name": "Conv2D", "config": {"name": "conv3_block2_2_conv", "trainable": false, "dtype": "float32", "filters": 32, "kernel_size": [3, 3], "strides": [1, 1], "padding": "same", "data_format": "channels_last", "dilation_rate": [1, 1], "activation": "linear", "use_bias": false, "kernel_initializer": {"class_name": "GlorotUniform", "config": {"seed": null}}, "bias_initializer": {"class_name": "Zeros", "config": {}}, "kernel_regularizer": null, "bias_regularizer": null, "activity_regularizer": null, "kernel_constraint": null, "bias_constraint": null}, "name": "conv3_block2_2_conv", "inbound_nodes": [[["conv3_block2_1_relu", 0, 0, {}]]]}, {"class_name": "Concatenate", "config": {"name": "conv3_block2_concat", "trainable": false, "dtype": "float32", "axis": 3}, "name": "conv3_block2_concat", "inbound_nodes": [[["conv3_block1_concat", 0, 0, {}], ["conv3_block2_2_conv", 0, 0, {}]]]}, {"class_name": "BatchNormalization", "config": {"name": "conv3_block3_0_bn", "trainable": false, "dtype": "float32", "axis": [3], "momentum": 0.99, "epsilon": 1.001e-05, "center": true, "scale": true, "beta_initializer": {"class_name": "Zeros", "config": {}}, "gamma_initializer": {"class_name": "Ones", "config": {}}, "moving_mean_initializer": {"class_name": "Zeros", "config": {}}, "moving_variance_initializer": {"class_name": "Ones", "config": {}}, "beta_regularizer": null, "gamma_regularizer": null, "beta_constraint": null, "gamma_constraint": null}, "name": "conv3_block3_0_bn", "inbound_nodes": [[["conv3_block2_concat", 0, 0, {}]]]}, {"class_name": "Activation", "config": {"name": "conv3_block3_0_relu", "trainable": false, "dtype": "float32", "activation": "relu"}, "name": "conv3_block3_0_relu", "inbound_nodes": [[["conv3_block3_0_bn", 0, 0, {}]]]}, {"class_name": "Conv2D", "config": {"name": "conv3_block3_1_conv", "trainable": false, "dtype": "float32", "filters": 128, "kernel_size": [1, 1], "strides": [1, 1], "padding": "valid", "data_format": "channels_last", "dilation_rate": [1, 1], "activation": "linear", "use_bias": false, "kernel_initializer": {"class_name": "GlorotUniform", "config": {"seed": null}}, "bias_initializer": {"class_name": "Zeros", "config": {}}, "kernel_regularizer": null, "bias_regularizer": null, "activity_regularizer": null, "kernel_constraint": null, "bias_constraint": null}, "name": "conv3_block3_1_conv", "inbound_nodes": [[["conv3_block3_0_relu", 0, 0, {}]]]}, {"class_name": "BatchNormalization", "config": {"name": "conv3_block3_1_bn", "trainable": false, "dtype": "float32", "axis": [3], "momentum": 0.99, "epsilon": 1.001e-05, "center": true, "scale": true, "beta_initializer": {"class_name": "Zeros", "config": {}}, "gamma_initializer": {"class_name": "Ones", "config": {}}, "moving_mean_initializer": {"class_name": "Zeros", "config": {}}, "moving_variance_initializer": {"class_name": "Ones", "config": {}}, "beta_regularizer": null, "gamma_regularizer": null, "beta_constraint": null, "gamma_constraint": null}, "name": "conv3_block3_1_bn", "inbound_nodes": [[["conv3_block3_1_conv", 0, 0, {}]]]}, {"class_name": "Activation", "config": {"name": "conv3_block3_1_relu", "trainable": false, "dtype": "float32", "activation": "relu"}, "name": "conv3_block3_1_relu", "inbound_nodes": [[["conv3_block3_1_bn", 0, 0, {}]]]}, {"class_name": "Conv2D", "config": {"name": "conv3_block3_2_conv", "trainable": false, "dtype": "float32", "filters": 32, "kernel_size": [3, 3], "strides": [1, 1], "padding": "same", "data_format": "channels_last", "dilation_rate": [1, 1], "activation": "linear", "use_bias": false, "kernel_initializer": {"class_name": "GlorotUniform", "config": {"seed": null}}, "bias_initializer": {"class_name": "Zeros", "config": {}}, "kernel_regularizer": null, "bias_regularizer": null, "activity_regularizer": null, "kernel_constraint": null, "bias_constraint": null}, "name": "conv3_block3_2_conv", "inbound_nodes": [[["conv3_block3_1_relu", 0, 0, {}]]]}, {"class_name": "Concatenate", "config": {"name": "conv3_block3_concat", "trainable": false, "dtype": "float32", "axis": 3}, "name": "conv3_block3_concat", "inbound_nodes": [[["conv3_block2_concat", 0, 0, {}], ["conv3_block3_2_conv", 0, 0, {}]]]}, {"class_name": "BatchNormalization", "config": {"name": "conv3_block4_0_bn", "trainable": false, "dtype": "float32", "axis": [3], "momentum": 0.99, "epsilon": 1.001e-05, "center": true, "scale": true, "beta_initializer": {"class_name": "Zeros", "config": {}}, "gamma_initializer": {"class_name": "Ones", "config": {}}, "moving_mean_initializer": {"class_name": "Zeros", "config": {}}, "moving_variance_initializer": {"class_name": "Ones", "config": {}}, "beta_regularizer": null, "gamma_regularizer": null, "beta_constraint": null, "gamma_constraint": null}, "name": "conv3_block4_0_bn", "inbound_nodes": [[["conv3_block3_concat", 0, 0, {}]]]}, {"class_name": "Activation", "config": {"name": "conv3_block4_0_relu", "trainable": false, "dtype": "float32", "activation": "relu"}, "name": "conv3_block4_0_relu", "inbound_nodes": [[["conv3_block4_0_bn", 0, 0, {}]]]}, {"class_name": "Conv2D", "config": {"name": "conv3_block4_1_conv", "trainable": false, "dtype": "float32", "filters": 128, "kernel_size": [1, 1], "strides": [1, 1], "padding": "valid", "data_format": "channels_last", "dilation_rate": [1, 1], "activation": "linear", "use_bias": false, "kernel_initializer": {"class_name": "GlorotUniform", "config": {"seed": null}}, "bias_initializer": {"class_name": "Zeros", "config": {}}, "kernel_regularizer": null, "bias_regularizer": null, "activity_regularizer": null, "kernel_constraint": null, "bias_constraint": null}, "name": "conv3_block4_1_conv", "inbound_nodes": [[["conv3_block4_0_relu", 0, 0, {}]]]}, {"class_name": "BatchNormalization", "config": {"name": "conv3_block4_1_bn", "trainable": false, "dtype": "float32", "axis": [3], "momentum": 0.99, "epsilon": 1.001e-05, "center": true, "scale": true, "beta_initializer": {"class_name": "Zeros", "config": {}}, "gamma_initializer": {"class_name": "Ones", "config": {}}, "moving_mean_initializer": {"class_name": "Zeros", "config": {}}, "moving_variance_initializer": {"class_name": "Ones", "config": {}}, "beta_regularizer": null, "gamma_regularizer": null, "beta_constraint": null, "gamma_constraint": null}, "name": "conv3_block4_1_bn", "inbound_nodes": [[["conv3_block4_1_conv", 0, 0, {}]]]}, {"class_name": "Activation", "config": {"name": "conv3_block4_1_relu", "trainable": false, "dtype": "float32", "activation": "relu"}, "name": "conv3_block4_1_relu", "inbound_nodes": [[["conv3_block4_1_bn", 0, 0, {}]]]}, {"class_name": "Conv2D", "config": {"name": "conv3_block4_2_conv", "trainable": false, "dtype": "float32", "filters": 32, "kernel_size": [3, 3], "strides": [1, 1], "padding": "same", "data_format": "channels_last", "dilation_rate": [1, 1], "activation": "linear", "use_bias": false, "kernel_initializer": {"class_name": "GlorotUniform", "config": {"seed": null}}, "bias_initializer": {"class_name": "Zeros", "config": {}}, "kernel_regularizer": null, "bias_regularizer": null, "activity_regularizer": null, "kernel_constraint": null, "bias_constraint": null}, "name": "conv3_block4_2_conv", "inbound_nodes": [[["conv3_block4_1_relu", 0, 0, {}]]]}, {"class_name": "Concatenate", "config": {"name": "conv3_block4_concat", "trainable": false, "dtype": "float32", "axis": 3}, "name": "conv3_block4_concat", "inbound_nodes": [[["conv3_block3_concat", 0, 0, {}], ["conv3_block4_2_conv", 0, 0, {}]]]}, {"class_name": "BatchNormalization", "config": {"name": "conv3_block5_0_bn", "trainable": false, "dtype": "float32", "axis": [3], "momentum": 0.99, "epsilon": 1.001e-05, "center": true, "scale": true, "beta_initializer": {"class_name": "Zeros", "config": {}}, "gamma_initializer": {"class_name": "Ones", "config": {}}, "moving_mean_initializer": {"class_name": "Zeros", "config": {}}, "moving_variance_initializer": {"class_name": "Ones", "config": {}}, "beta_regularizer": null, "gamma_regularizer": null, "beta_constraint": null, "gamma_constraint": null}, "name": "conv3_block5_0_bn", "inbound_nodes": [[["conv3_block4_concat", 0, 0, {}]]]}, {"class_name": "Activation", "config": {"name": "conv3_block5_0_relu", "trainable": false, "dtype": "float32", "activation": "relu"}, "name": "conv3_block5_0_relu", "inbound_nodes": [[["conv3_block5_0_bn", 0, 0, {}]]]}, {"class_name": "Conv2D", "config": {"name": "conv3_block5_1_conv", "trainable": false, "dtype": "float32", "filters": 128, "kernel_size": [1, 1], "strides": [1, 1], "padding": "valid", "data_format": "channels_last", "dilation_rate": [1, 1], "activation": "linear", "use_bias": false, "kernel_initializer": {"class_name": "GlorotUniform", "config": {"seed": null}}, "bias_initializer": {"class_name": "Zeros", "config": {}}, "kernel_regularizer": null, "bias_regularizer": null, "activity_regularizer": null, "kernel_constraint": null, "bias_constraint": null}, "name": "conv3_block5_1_conv", "inbound_nodes": [[["conv3_block5_0_relu", 0, 0, {}]]]}, {"class_name": "BatchNormalization", "config": {"name": "conv3_block5_1_bn", "trainable": false, "dtype": "float32", "axis": [3], "momentum": 0.99, "epsilon": 1.001e-05, "center": true, "scale": true, "beta_initializer": {"class_name": "Zeros", "config": {}}, "gamma_initializer": {"class_name": "Ones", "config": {}}, "moving_mean_initializer": {"class_name": "Zeros", "config": {}}, "moving_variance_initializer": {"class_name": "Ones", "config": {}}, "beta_regularizer": null, "gamma_regularizer": null, "beta_constraint": null, "gamma_constraint": null}, "name": "conv3_block5_1_bn", "inbound_nodes": [[["conv3_block5_1_conv", 0, 0, {}]]]}, {"class_name": "Activation", "config": {"name": "conv3_block5_1_relu", "trainable": false, "dtype": "float32", "activation": "relu"}, "name": "conv3_block5_1_relu", "inbound_nodes": [[["conv3_block5_1_bn", 0, 0, {}]]]}, {"class_name": "Conv2D", "config": {"name": "conv3_block5_2_conv", "trainable": false, "dtype": "float32", "filters": 32, "kernel_size": [3, 3], "strides": [1, 1], "padding": "same", "data_format": "channels_last", "dilation_rate": [1, 1], "activation": "linear", "use_bias": false, "kernel_initializer": {"class_name": "GlorotUniform", "config": {"seed": null}}, "bias_initializer": {"class_name": "Zeros", "config": {}}, "kernel_regularizer": null, "bias_regularizer": null, "activity_regularizer": null, "kernel_constraint": null, "bias_constraint": null}, "name": "conv3_block5_2_conv", "inbound_nodes": [[["conv3_block5_1_relu", 0, 0, {}]]]}, {"class_name": "Concatenate", "config": {"name": "conv3_block5_concat", "trainable": false, "dtype": "float32", "axis": 3}, "name": "conv3_block5_concat", "inbound_nodes": [[["conv3_block4_concat", 0, 0, {}], ["conv3_block5_2_conv", 0, 0, {}]]]}, {"class_name": "BatchNormalization", "config": {"name": "conv3_block6_0_bn", "trainable": false, "dtype": "float32", "axis": [3], "momentum": 0.99, "epsilon": 1.001e-05, "center": true, "scale": true, "beta_initializer": {"class_name": "Zeros", "config": {}}, "gamma_initializer": {"class_name": "Ones", "config": {}}, "moving_mean_initializer": {"class_name": "Zeros", "config": {}}, "moving_variance_initializer": {"class_name": "Ones", "config": {}}, "beta_regularizer": null, "gamma_regularizer": null, "beta_constraint": null, "gamma_constraint": null}, "name": "conv3_block6_0_bn", "inbound_nodes": [[["conv3_block5_concat", 0, 0, {}]]]}, {"class_name": "Activation", "config": {"name": "conv3_block6_0_relu", "trainable": false, "dtype": "float32", "activation": "relu"}, "name": "conv3_block6_0_relu", "inbound_nodes": [[["conv3_block6_0_bn", 0, 0, {}]]]}, {"class_name": "Conv2D", "config": {"name": "conv3_block6_1_conv", "trainable": false, "dtype": "float32", "filters": 128, "kernel_size": [1, 1], "strides": [1, 1], "padding": "valid", "data_format": "channels_last", "dilation_rate": [1, 1], "activation": "linear", "use_bias": false, "kernel_initializer": {"class_name": "GlorotUniform", "config": {"seed": null}}, "bias_initializer": {"class_name": "Zeros", "config": {}}, "kernel_regularizer": null, "bias_regularizer": null, "activity_regularizer": null, "kernel_constraint": null, "bias_constraint": null}, "name": "conv3_block6_1_conv", "inbound_nodes": [[["conv3_block6_0_relu", 0, 0, {}]]]}, {"class_name": "BatchNormalization", "config": {"name": "conv3_block6_1_bn", "trainable": false, "dtype": "float32", "axis": [3], "momentum": 0.99, "epsilon": 1.001e-05, "center": true, "scale": true, "beta_initializer": {"class_name": "Zeros", "config": {}}, "gamma_initializer": {"class_name": "Ones", "config": {}}, "moving_mean_initializer": {"class_name": "Zeros", "config": {}}, "moving_variance_initializer": {"class_name": "Ones", "config": {}}, "beta_regularizer": null, "gamma_regularizer": null, "beta_constraint": null, "gamma_constraint": null}, "name": "conv3_block6_1_bn", "inbound_nodes": [[["conv3_block6_1_conv", 0, 0, {}]]]}, {"class_name": "Activation", "config": {"name": "conv3_block6_1_relu", "trainable": false, "dtype": "float32", "activation": "relu"}, "name": "conv3_block6_1_relu", "inbound_nodes": [[["conv3_block6_1_bn", 0, 0, {}]]]}, {"class_name": "Conv2D", "config": {"name": "conv3_block6_2_conv", "trainable": false, "dtype": "float32", "filters": 32, "kernel_size": [3, 3], "strides": [1, 1], "padding": "same", "data_format": "channels_last", "dilation_rate": [1, 1], "activation": "linear", "use_bias": false, "kernel_initializer": {"class_name": "GlorotUniform", "config": {"seed": null}}, "bias_initializer": {"class_name": "Zeros", "config": {}}, "kernel_regularizer": null, "bias_regularizer": null, "activity_regularizer": null, "kernel_constraint": null, "bias_constraint": null}, "name": "conv3_block6_2_conv", "inbound_nodes": [[["conv3_block6_1_relu", 0, 0, {}]]]}, {"class_name": "Concatenate", "config": {"name": "conv3_block6_concat", "trainable": false, "dtype": "float32", "axis": 3}, "name": "conv3_block6_concat", "inbound_nodes": [[["conv3_block5_concat", 0, 0, {}], ["conv3_block6_2_conv", 0, 0, {}]]]}, {"class_name": "BatchNormalization", "config": {"name": "conv3_block7_0_bn", "trainable": false, "dtype": "float32", "axis": [3], "momentum": 0.99, "epsilon": 1.001e-05, "center": true, "scale": true, "beta_initializer": {"class_name": "Zeros", "config": {}}, "gamma_initializer": {"class_name": "Ones", "config": {}}, "moving_mean_initializer": {"class_name": "Zeros", "config": {}}, "moving_variance_initializer": {"class_name": "Ones", "config": {}}, "beta_regularizer": null, "gamma_regularizer": null, "beta_constraint": null, "gamma_constraint": null}, "name": "conv3_block7_0_bn", "inbound_nodes": [[["conv3_block6_concat", 0, 0, {}]]]}, {"class_name": "Activation", "config": {"name": "conv3_block7_0_relu", "trainable": false, "dtype": "float32", "activation": "relu"}, "name": "conv3_block7_0_relu", "inbound_nodes": [[["conv3_block7_0_bn", 0, 0, {}]]]}, {"class_name": "Conv2D", "config": {"name": "conv3_block7_1_conv", "trainable": false, "dtype": "float32", "filters": 128, "kernel_size": [1, 1], "strides": [1, 1], "padding": "valid", "data_format": "channels_last", "dilation_rate": [1, 1], "activation": "linear", "use_bias": false, "kernel_initializer": {"class_name": "GlorotUniform", "config": {"seed": null}}, "bias_initializer": {"class_name": "Zeros", "config": {}}, "kernel_regularizer": null, "bias_regularizer": null, "activity_regularizer": null, "kernel_constraint": null, "bias_constraint": null}, "name": "conv3_block7_1_conv", "inbound_nodes": [[["conv3_block7_0_relu", 0, 0, {}]]]}, {"class_name": "BatchNormalization", "config": {"name": "conv3_block7_1_bn", "trainable": false, "dtype": "float32", "axis": [3], "momentum": 0.99, "epsilon": 1.001e-05, "center": true, "scale": true, "beta_initializer": {"class_name": "Zeros", "config": {}}, "gamma_initializer": {"class_name": "Ones", "config": {}}, "moving_mean_initializer": {"class_name": "Zeros", "config": {}}, "moving_variance_initializer": {"class_name": "Ones", "config": {}}, "beta_regularizer": null, "gamma_regularizer": null, "beta_constraint": null, "gamma_constraint": null}, "name": "conv3_block7_1_bn", "inbound_nodes": [[["conv3_block7_1_conv", 0, 0, {}]]]}, {"class_name": "Activation", "config": {"name": "conv3_block7_1_relu", "trainable": false, "dtype": "float32", "activation": "relu"}, "name": "conv3_block7_1_relu", "inbound_nodes": [[["conv3_block7_1_bn", 0, 0, {}]]]}, {"class_name": "Conv2D", "config": {"name": "conv3_block7_2_conv", "trainable": false, "dtype": "float32", "filters": 32, "kernel_size": [3, 3], "strides": [1, 1], "padding": "same", "data_format": "channels_last", "dilation_rate": [1, 1], "activation": "linear", "use_bias": false, "kernel_initializer": {"class_name": "GlorotUniform", "config": {"seed": null}}, "bias_initializer": {"class_name": "Zeros", "config": {}}, "kernel_regularizer": null, "bias_regularizer": null, "activity_regularizer": null, "kernel_constraint": null, "bias_constraint": null}, "name": "conv3_block7_2_conv", "inbound_nodes": [[["conv3_block7_1_relu", 0, 0, {}]]]}, {"class_name": "Concatenate", "config": {"name": "conv3_block7_concat", "trainable": false, "dtype": "float32", "axis": 3}, "name": "conv3_block7_concat", "inbound_nodes": [[["conv3_block6_concat", 0, 0, {}], ["conv3_block7_2_conv", 0, 0, {}]]]}, {"class_name": "BatchNormalization", "config": {"name": "conv3_block8_0_bn", "trainable": false, "dtype": "float32", "axis": [3], "momentum": 0.99, "epsilon": 1.001e-05, "center": true, "scale": true, "beta_initializer": {"class_name": "Zeros", "config": {}}, "gamma_initializer": {"class_name": "Ones", "config": {}}, "moving_mean_initializer": {"class_name": "Zeros", "config": {}}, "moving_variance_initializer": {"class_name": "Ones", "config": {}}, "beta_regularizer": null, "gamma_regularizer": null, "beta_constraint": null, "gamma_constraint": null}, "name": "conv3_block8_0_bn", "inbound_nodes": [[["conv3_block7_concat", 0, 0, {}]]]}, {"class_name": "Activation", "config": {"name": "conv3_block8_0_relu", "trainable": false, "dtype": "float32", "activation": "relu"}, "name": "conv3_block8_0_relu", "inbound_nodes": [[["conv3_block8_0_bn", 0, 0, {}]]]}, {"class_name": "Conv2D", "config": {"name": "conv3_block8_1_conv", "trainable": false, "dtype": "float32", "filters": 128, "kernel_size": [1, 1], "strides": [1, 1], "padding": "valid", "data_format": "channels_last", "dilation_rate": [1, 1], "activation": "linear", "use_bias": false, "kernel_initializer": {"class_name": "GlorotUniform", "config": {"seed": null}}, "bias_initializer": {"class_name": "Zeros", "config": {}}, "kernel_regularizer": null, "bias_regularizer": null, "activity_regularizer": null, "kernel_constraint": null, "bias_constraint": null}, "name": "conv3_block8_1_conv", "inbound_nodes": [[["conv3_block8_0_relu", 0, 0, {}]]]}, {"class_name": "BatchNormalization", "config": {"name": "conv3_block8_1_bn", "trainable": false, "dtype": "float32", "axis": [3], "momentum": 0.99, "epsilon": 1.001e-05, "center": true, "scale": true, "beta_initializer": {"class_name": "Zeros", "config": {}}, "gamma_initializer": {"class_name": "Ones", "config": {}}, "moving_mean_initializer": {"class_name": "Zeros", "config": {}}, "moving_variance_initializer": {"class_name": "Ones", "config": {}}, "beta_regularizer": null, "gamma_regularizer": null, "beta_constraint": null, "gamma_constraint": null}, "name": "conv3_block8_1_bn", "inbound_nodes": [[["conv3_block8_1_conv", 0, 0, {}]]]}, {"class_name": "Activation", "config": {"name": "conv3_block8_1_relu", "trainable": false, "dtype": "float32", "activation": "relu"}, "name": "conv3_block8_1_relu", "inbound_nodes": [[["conv3_block8_1_bn", 0, 0, {}]]]}, {"class_name": "Conv2D", "config": {"name": "conv3_block8_2_conv", "trainable": false, "dtype": "float32", "filters": 32, "kernel_size": [3, 3], "strides": [1, 1], "padding": "same", "data_format": "channels_last", "dilation_rate": [1, 1], "activation": "linear", "use_bias": false, "kernel_initializer": {"class_name": "GlorotUniform", "config": {"seed": null}}, "bias_initializer": {"class_name": "Zeros", "config": {}}, "kernel_regularizer": null, "bias_regularizer": null, "activity_regularizer": null, "kernel_constraint": null, "bias_constraint": null}, "name": "conv3_block8_2_conv", "inbound_nodes": [[["conv3_block8_1_relu", 0, 0, {}]]]}, {"class_name": "Concatenate", "config": {"name": "conv3_block8_concat", "trainable": false, "dtype": "float32", "axis": 3}, "name": "conv3_block8_concat", "inbound_nodes": [[["conv3_block7_concat", 0, 0, {}], ["conv3_block8_2_conv", 0, 0, {}]]]}, {"class_name": "BatchNormalization", "config": {"name": "conv3_block9_0_bn", "trainable": false, "dtype": "float32", "axis": [3], "momentum": 0.99, "epsilon": 1.001e-05, "center": true, "scale": true, "beta_initializer": {"class_name": "Zeros", "config": {}}, "gamma_initializer": {"class_name": "Ones", "config": {}}, "moving_mean_initializer": {"class_name": "Zeros", "config": {}}, "moving_variance_initializer": {"class_name": "Ones", "config": {}}, "beta_regularizer": null, "gamma_regularizer": null, "beta_constraint": null, "gamma_constraint": null}, "name": "conv3_block9_0_bn", "inbound_nodes": [[["conv3_block8_concat", 0, 0, {}]]]}, {"class_name": "Activation", "config": {"name": "conv3_block9_0_relu", "trainable": false, "dtype": "float32", "activation": "relu"}, "name": "conv3_block9_0_relu", "inbound_nodes": [[["conv3_block9_0_bn", 0, 0, {}]]]}, {"class_name": "Conv2D", "config": {"name": "conv3_block9_1_conv", "trainable": false, "dtype": "float32", "filters": 128, "kernel_size": [1, 1], "strides": [1, 1], "padding": "valid", "data_format": "channels_last", "dilation_rate": [1, 1], "activation": "linear", "use_bias": false, "kernel_initializer": {"class_name": "GlorotUniform", "config": {"seed": null}}, "bias_initializer": {"class_name": "Zeros", "config": {}}, "kernel_regularizer": null, "bias_regularizer": null, "activity_regularizer": null, "kernel_constraint": null, "bias_constraint": null}, "name": "conv3_block9_1_conv", "inbound_nodes": [[["conv3_block9_0_relu", 0, 0, {}]]]}, {"class_name": "BatchNormalization", "config": {"name": "conv3_block9_1_bn", "trainable": false, "dtype": "float32", "axis": [3], "momentum": 0.99, "epsilon": 1.001e-05, "center": true, "scale": true, "beta_initializer": {"class_name": "Zeros", "config": {}}, "gamma_initializer": {"class_name": "Ones", "config": {}}, "moving_mean_initializer": {"class_name": "Zeros", "config": {}}, "moving_variance_initializer": {"class_name": "Ones", "config": {}}, "beta_regularizer": null, "gamma_regularizer": null, "beta_constraint": null, "gamma_constraint": null}, "name": "conv3_block9_1_bn", "inbound_nodes": [[["conv3_block9_1_conv", 0, 0, {}]]]}, {"class_name": "Activation", "config": {"name": "conv3_block9_1_relu", "trainable": false, "dtype": "float32", "activation": "relu"}, "name": "conv3_block9_1_relu", "inbound_nodes": [[["conv3_block9_1_bn", 0, 0, {}]]]}, {"class_name": "Conv2D", "config": {"name": "conv3_block9_2_conv", "trainable": false, "dtype": "float32", "filters": 32, "kernel_size": [3, 3], "strides": [1, 1], "padding": "same", "data_format": "channels_last", "dilation_rate": [1, 1], "activation": "linear", "use_bias": false, "kernel_initializer": {"class_name": "GlorotUniform", "config": {"seed": null}}, "bias_initializer": {"class_name": "Zeros", "config": {}}, "kernel_regularizer": null, "bias_regularizer": null, "activity_regularizer": null, "kernel_constraint": null, "bias_constraint": null}, "name": "conv3_block9_2_conv", "inbound_nodes": [[["conv3_block9_1_relu", 0, 0, {}]]]}, {"class_name": "Concatenate", "config": {"name": "conv3_block9_concat", "trainable": false, "dtype": "float32", "axis": 3}, "name": "conv3_block9_concat", "inbound_nodes": [[["conv3_block8_concat", 0, 0, {}], ["conv3_block9_2_conv", 0, 0, {}]]]}, {"class_name": "BatchNormalization", "config": {"name": "conv3_block10_0_bn", "trainable": false, "dtype": "float32", "axis": [3], "momentum": 0.99, "epsilon": 1.001e-05, "center": true, "scale": true, "beta_initializer": {"class_name": "Zeros", "config": {}}, "gamma_initializer": {"class_name": "Ones", "config": {}}, "moving_mean_initializer": {"class_name": "Zeros", "config": {}}, "moving_variance_initializer": {"class_name": "Ones", "config": {}}, "beta_regularizer": null, "gamma_regularizer": null, "beta_constraint": null, "gamma_constraint": null}, "name": "conv3_block10_0_bn", "inbound_nodes": [[["conv3_block9_concat", 0, 0, {}]]]}, {"class_name": "Activation", "config": {"name": "conv3_block10_0_relu", "trainable": false, "dtype": "float32", "activation": "relu"}, "name": "conv3_block10_0_relu", "inbound_nodes": [[["conv3_block10_0_bn", 0, 0, {}]]]}, {"class_name": "Conv2D", "config": {"name": "conv3_block10_1_conv", "trainable": false, "dtype": "float32", "filters": 128, "kernel_size": [1, 1], "strides": [1, 1], "padding": "valid", "data_format": "channels_last", "dilation_rate": [1, 1], "activation": "linear", "use_bias": false, "kernel_initializer": {"class_name": "GlorotUniform", "config": {"seed": null}}, "bias_initializer": {"class_name": "Zeros", "config": {}}, "kernel_regularizer": null, "bias_regularizer": null, "activity_regularizer": null, "kernel_constraint": null, "bias_constraint": null}, "name": "conv3_block10_1_conv", "inbound_nodes": [[["conv3_block10_0_relu", 0, 0, {}]]]}, {"class_name": "BatchNormalization", "config": {"name": "conv3_block10_1_bn", "trainable": false, "dtype": "float32", "axis": [3], "momentum": 0.99, "epsilon": 1.001e-05, "center": true, "scale": true, "beta_initializer": {"class_name": "Zeros", "config": {}}, "gamma_initializer": {"class_name": "Ones", "config": {}}, "moving_mean_initializer": {"class_name": "Zeros", "config": {}}, "moving_variance_initializer": {"class_name": "Ones", "config": {}}, "beta_regularizer": null, "gamma_regularizer": null, "beta_constraint": null, "gamma_constraint": null}, "name": "conv3_block10_1_bn", "inbound_nodes": [[["conv3_block10_1_conv", 0, 0, {}]]]}, {"class_name": "Activation", "config": {"name": "conv3_block10_1_relu", "trainable": false, "dtype": "float32", "activation": "relu"}, "name": "conv3_block10_1_relu", "inbound_nodes": [[["conv3_block10_1_bn", 0, 0, {}]]]}, {"class_name": "Conv2D", "config": {"name": "conv3_block10_2_conv", "trainable": false, "dtype": "float32", "filters": 32, "kernel_size": [3, 3], "strides": [1, 1], "padding": "same", "data_format": "channels_last", "dilation_rate": [1, 1], "activation": "linear", "use_bias": false, "kernel_initializer": {"class_name": "GlorotUniform", "config": {"seed": null}}, "bias_initializer": {"class_name": "Zeros", "config": {}}, "kernel_regularizer": null, "bias_regularizer": null, "activity_regularizer": null, "kernel_constraint": null, "bias_constraint": null}, "name": "conv3_block10_2_conv", "inbound_nodes": [[["conv3_block10_1_relu", 0, 0, {}]]]}, {"class_name": "Concatenate", "config": {"name": "conv3_block10_concat", "trainable": false, "dtype": "float32", "axis": 3}, "name": "conv3_block10_concat", "inbound_nodes": [[["conv3_block9_concat", 0, 0, {}], ["conv3_block10_2_conv", 0, 0, {}]]]}, {"class_name": "BatchNormalization", "config": {"name": "conv3_block11_0_bn", "trainable": false, "dtype": "float32", "axis": [3], "momentum": 0.99, "epsilon": 1.001e-05, "center": true, "scale": true, "beta_initializer": {"class_name": "Zeros", "config": {}}, "gamma_initializer": {"class_name": "Ones", "config": {}}, "moving_mean_initializer": {"class_name": "Zeros", "config": {}}, "moving_variance_initializer": {"class_name": "Ones", "config": {}}, "beta_regularizer": null, "gamma_regularizer": null, "beta_constraint": null, "gamma_constraint": null}, "name": "conv3_block11_0_bn", "inbound_nodes": [[["conv3_block10_concat", 0, 0, {}]]]}, {"class_name": "Activation", "config": {"name": "conv3_block11_0_relu", "trainable": false, "dtype": "float32", "activation": "relu"}, "name": "conv3_block11_0_relu", "inbound_nodes": [[["conv3_block11_0_bn", 0, 0, {}]]]}, {"class_name": "Conv2D", "config": {"name": "conv3_block11_1_conv", "trainable": false, "dtype": "float32", "filters": 128, "kernel_size": [1, 1], "strides": [1, 1], "padding": "valid", "data_format": "channels_last", "dilation_rate": [1, 1], "activation": "linear", "use_bias": false, "kernel_initializer": {"class_name": "GlorotUniform", "config": {"seed": null}}, "bias_initializer": {"class_name": "Zeros", "config": {}}, "kernel_regularizer": null, "bias_regularizer": null, "activity_regularizer": null, "kernel_constraint": null, "bias_constraint": null}, "name": "conv3_block11_1_conv", "inbound_nodes": [[["conv3_block11_0_relu", 0, 0, {}]]]}, {"class_name": "BatchNormalization", "config": {"name": "conv3_block11_1_bn", "trainable": false, "dtype": "float32", "axis": [3], "momentum": 0.99, "epsilon": 1.001e-05, "center": true, "scale": true, "beta_initializer": {"class_name": "Zeros", "config": {}}, "gamma_initializer": {"class_name": "Ones", "config": {}}, "moving_mean_initializer": {"class_name": "Zeros", "config": {}}, "moving_variance_initializer": {"class_name": "Ones", "config": {}}, "beta_regularizer": null, "gamma_regularizer": null, "beta_constraint": null, "gamma_constraint": null}, "name": "conv3_block11_1_bn", "inbound_nodes": [[["conv3_block11_1_conv", 0, 0, {}]]]}, {"class_name": "Activation", "config": {"name": "conv3_block11_1_relu", "trainable": false, "dtype": "float32", "activation": "relu"}, "name": "conv3_block11_1_relu", "inbound_nodes": [[["conv3_block11_1_bn", 0, 0, {}]]]}, {"class_name": "Conv2D", "config": {"name": "conv3_block11_2_conv", "trainable": false, "dtype": "float32", "filters": 32, "kernel_size": [3, 3], "strides": [1, 1], "padding": "same", "data_format": "channels_last", "dilation_rate": [1, 1], "activation": "linear", "use_bias": false, "kernel_initializer": {"class_name": "GlorotUniform", "config": {"seed": null}}, "bias_initializer": {"class_name": "Zeros", "config": {}}, "kernel_regularizer": null, "bias_regularizer": null, "activity_regularizer": null, "kernel_constraint": null, "bias_constraint": null}, "name": "conv3_block11_2_conv", "inbound_nodes": [[["conv3_block11_1_relu", 0, 0, {}]]]}, {"class_name": "Concatenate", "config": {"name": "conv3_block11_concat", "trainable": false, "dtype": "float32", "axis": 3}, "name": "conv3_block11_concat", "inbound_nodes": [[["conv3_block10_concat", 0, 0, {}], ["conv3_block11_2_conv", 0, 0, {}]]]}, {"class_name": "BatchNormalization", "config": {"name": "conv3_block12_0_bn", "trainable": false, "dtype": "float32", "axis": [3], "momentum": 0.99, "epsilon": 1.001e-05, "center": true, "scale": true, "beta_initializer": {"class_name": "Zeros", "config": {}}, "gamma_initializer": {"class_name": "Ones", "config": {}}, "moving_mean_initializer": {"class_name": "Zeros", "config": {}}, "moving_variance_initializer": {"class_name": "Ones", "config": {}}, "beta_regularizer": null, "gamma_regularizer": null, "beta_constraint": null, "gamma_constraint": null}, "name": "conv3_block12_0_bn", "inbound_nodes": [[["conv3_block11_concat", 0, 0, {}]]]}, {"class_name": "Activation", "config": {"name": "conv3_block12_0_relu", "trainable": false, "dtype": "float32", "activation": "relu"}, "name": "conv3_block12_0_relu", "inbound_nodes": [[["conv3_block12_0_bn", 0, 0, {}]]]}, {"class_name": "Conv2D", "config": {"name": "conv3_block12_1_conv", "trainable": false, "dtype": "float32", "filters": 128, "kernel_size": [1, 1], "strides": [1, 1], "padding": "valid", "data_format": "channels_last", "dilation_rate": [1, 1], "activation": "linear", "use_bias": false, "kernel_initializer": {"class_name": "GlorotUniform", "config": {"seed": null}}, "bias_initializer": {"class_name": "Zeros", "config": {}}, "kernel_regularizer": null, "bias_regularizer": null, "activity_regularizer": null, "kernel_constraint": null, "bias_constraint": null}, "name": "conv3_block12_1_conv", "inbound_nodes": [[["conv3_block12_0_relu", 0, 0, {}]]]}, {"class_name": "BatchNormalization", "config": {"name": "conv3_block12_1_bn", "trainable": false, "dtype": "float32", "axis": [3], "momentum": 0.99, "epsilon": 1.001e-05, "center": true, "scale": true, "beta_initializer": {"class_name": "Zeros", "config": {}}, "gamma_initializer": {"class_name": "Ones", "config": {}}, "moving_mean_initializer": {"class_name": "Zeros", "config": {}}, "moving_variance_initializer": {"class_name": "Ones", "config": {}}, "beta_regularizer": null, "gamma_regularizer": null, "beta_constraint": null, "gamma_constraint": null}, "name": "conv3_block12_1_bn", "inbound_nodes": [[["conv3_block12_1_conv", 0, 0, {}]]]}, {"class_name": "Activation", "config": {"name": "conv3_block12_1_relu", "trainable": false, "dtype": "float32", "activation": "relu"}, "name": "conv3_block12_1_relu", "inbound_nodes": [[["conv3_block12_1_bn", 0, 0, {}]]]}, {"class_name": "Conv2D", "config": {"name": "conv3_block12_2_conv", "trainable": false, "dtype": "float32", "filters": 32, "kernel_size": [3, 3], "strides": [1, 1], "padding": "same", "data_format": "channels_last", "dilation_rate": [1, 1], "activation": "linear", "use_bias": false, "kernel_initializer": {"class_name": "GlorotUniform", "config": {"seed": null}}, "bias_initializer": {"class_name": "Zeros", "config": {}}, "kernel_regularizer": null, "bias_regularizer": null, "activity_regularizer": null, "kernel_constraint": null, "bias_constraint": null}, "name": "conv3_block12_2_conv", "inbound_nodes": [[["conv3_block12_1_relu", 0, 0, {}]]]}, {"class_name": "Concatenate", "config": {"name": "conv3_block12_concat", "trainable": false, "dtype": "float32", "axis": 3}, "name": "conv3_block12_concat", "inbound_nodes": [[["conv3_block11_concat", 0, 0, {}], ["conv3_block12_2_conv", 0, 0, {}]]]}, {"class_name": "BatchNormalization", "config": {"name": "pool3_bn", "trainable": false, "dtype": "float32", "axis": [3], "momentum": 0.99, "epsilon": 1.001e-05, "center": true, "scale": true, "beta_initializer": {"class_name": "Zeros", "config": {}}, "gamma_initializer": {"class_name": "Ones", "config": {}}, "moving_mean_initializer": {"class_name": "Zeros", "config": {}}, "moving_variance_initializer": {"class_name": "Ones", "config": {}}, "beta_regularizer": null, "gamma_regularizer": null, "beta_constraint": null, "gamma_constraint": null}, "name": "pool3_bn", "inbound_nodes": [[["conv3_block12_concat", 0, 0, {}]]]}, {"class_name": "Activation", "config": {"name": "pool3_relu", "trainable": false, "dtype": "float32", "activation": "relu"}, "name": "pool3_relu", "inbound_nodes": [[["pool3_bn", 0, 0, {}]]]}, {"class_name": "Conv2D", "config": {"name": "pool3_conv", "trainable": false, "dtype": "float32", "filters": 256, "kernel_size": [1, 1], "strides": [1, 1], "padding": "valid", "data_format": "channels_last", "dilation_rate": [1, 1], "activation": "linear", "use_bias": false, "kernel_initializer": {"class_name": "GlorotUniform", "config": {"seed": null}}, "bias_initializer": {"class_name": "Zeros", "config": {}}, "kernel_regularizer": null, "bias_regularizer": null, "activity_regularizer": null, "kernel_constraint": null, "bias_constraint": null}, "name": "pool3_conv", "inbound_nodes": [[["pool3_relu", 0, 0, {}]]]}, {"class_name": "AveragePooling2D", "config": {"name": "pool3_pool", "trainable": false, "dtype": "float32", "pool_size": [2, 2], "padding": "valid", "strides": [2, 2], "data_format": "channels_last"}, "name": "pool3_pool", "inbound_nodes": [[["pool3_conv", 0, 0, {}]]]}, {"class_name": "BatchNormalization", "config": {"name": "conv4_block1_0_bn", "trainable": false, "dtype": "float32", "axis": [3], "momentum": 0.99, "epsilon": 1.001e-05, "center": true, "scale": true, "beta_initializer": {"class_name": "Zeros", "config": {}}, "gamma_initializer": {"class_name": "Ones", "config": {}}, "moving_mean_initializer": {"class_name": "Zeros", "config": {}}, "moving_variance_initializer": {"class_name": "Ones", "config": {}}, "beta_regularizer": null, "gamma_regularizer": null, "beta_constraint": null, "gamma_constraint": null}, "name": "conv4_block1_0_bn", "inbound_nodes": [[["pool3_pool", 0, 0, {}]]]}, {"class_name": "Activation", "config": {"name": "conv4_block1_0_relu", "trainable": false, "dtype": "float32", "activation": "relu"}, "name": "conv4_block1_0_relu", "inbound_nodes": [[["conv4_block1_0_bn", 0, 0, {}]]]}, {"class_name": "Conv2D", "config": {"name": "conv4_block1_1_conv", "trainable": false, "dtype": "float32", "filters": 128, "kernel_size": [1, 1], "strides": [1, 1], "padding": "valid", "data_format": "channels_last", "dilation_rate": [1, 1], "activation": "linear", "use_bias": false, "kernel_initializer": {"class_name": "GlorotUniform", "config": {"seed": null}}, "bias_initializer": {"class_name": "Zeros", "config": {}}, "kernel_regularizer": null, "bias_regularizer": null, "activity_regularizer": null, "kernel_constraint": null, "bias_constraint": null}, "name": "conv4_block1_1_conv", "inbound_nodes": [[["conv4_block1_0_relu", 0, 0, {}]]]}, {"class_name": "BatchNormalization", "config": {"name": "conv4_block1_1_bn", "trainable": false, "dtype": "float32", "axis": [3], "momentum": 0.99, "epsilon": 1.001e-05, "center": true, "scale": true, "beta_initializer": {"class_name": "Zeros", "config": {}}, "gamma_initializer": {"class_name": "Ones", "config": {}}, "moving_mean_initializer": {"class_name": "Zeros", "config": {}}, "moving_variance_initializer": {"class_name": "Ones", "config": {}}, "beta_regularizer": null, "gamma_regularizer": null, "beta_constraint": null, "gamma_constraint": null}, "name": "conv4_block1_1_bn", "inbound_nodes": [[["conv4_block1_1_conv", 0, 0, {}]]]}, {"class_name": "Activation", "config": {"name": "conv4_block1_1_relu", "trainable": false, "dtype": "float32", "activation": "relu"}, "name": "conv4_block1_1_relu", "inbound_nodes": [[["conv4_block1_1_bn", 0, 0, {}]]]}, {"class_name": "Conv2D", "config": {"name": "conv4_block1_2_conv", "trainable": false, "dtype": "float32", "filters": 32, "kernel_size": [3, 3], "strides": [1, 1], "padding": "same", "data_format": "channels_last", "dilation_rate": [1, 1], "activation": "linear", "use_bias": false, "kernel_initializer": {"class_name": "GlorotUniform", "config": {"seed": null}}, "bias_initializer": {"class_name": "Zeros", "config": {}}, "kernel_regularizer": null, "bias_regularizer": null, "activity_regularizer": null, "kernel_constraint": null, "bias_constraint": null}, "name": "conv4_block1_2_conv", "inbound_nodes": [[["conv4_block1_1_relu", 0, 0, {}]]]}, {"class_name": "Concatenate", "config": {"name": "conv4_block1_concat", "trainable": false, "dtype": "float32", "axis": 3}, "name": "conv4_block1_concat", "inbound_nodes": [[["pool3_pool", 0, 0, {}], ["conv4_block1_2_conv", 0, 0, {}]]]}, {"class_name": "BatchNormalization", "config": {"name": "conv4_block2_0_bn", "trainable": false, "dtype": "float32", "axis": [3], "momentum": 0.99, "epsilon": 1.001e-05, "center": true, "scale": true, "beta_initializer": {"class_name": "Zeros", "config": {}}, "gamma_initializer": {"class_name": "Ones", "config": {}}, "moving_mean_initializer": {"class_name": "Zeros", "config": {}}, "moving_variance_initializer": {"class_name": "Ones", "config": {}}, "beta_regularizer": null, "gamma_regularizer": null, "beta_constraint": null, "gamma_constraint": null}, "name": "conv4_block2_0_bn", "inbound_nodes": [[["conv4_block1_concat", 0, 0, {}]]]}, {"class_name": "Activation", "config": {"name": "conv4_block2_0_relu", "trainable": false, "dtype": "float32", "activation": "relu"}, "name": "conv4_block2_0_relu", "inbound_nodes": [[["conv4_block2_0_bn", 0, 0, {}]]]}, {"class_name": "Conv2D", "config": {"name": "conv4_block2_1_conv", "trainable": false, "dtype": "float32", "filters": 128, "kernel_size": [1, 1], "strides": [1, 1], "padding": "valid", "data_format": "channels_last", "dilation_rate": [1, 1], "activation": "linear", "use_bias": false, "kernel_initializer": {"class_name": "GlorotUniform", "config": {"seed": null}}, "bias_initializer": {"class_name": "Zeros", "config": {}}, "kernel_regularizer": null, "bias_regularizer": null, "activity_regularizer": null, "kernel_constraint": null, "bias_constraint": null}, "name": "conv4_block2_1_conv", "inbound_nodes": [[["conv4_block2_0_relu", 0, 0, {}]]]}, {"class_name": "BatchNormalization", "config": {"name": "conv4_block2_1_bn", "trainable": false, "dtype": "float32", "axis": [3], "momentum": 0.99, "epsilon": 1.001e-05, "center": true, "scale": true, "beta_initializer": {"class_name": "Zeros", "config": {}}, "gamma_initializer": {"class_name": "Ones", "config": {}}, "moving_mean_initializer": {"class_name": "Zeros", "config": {}}, "moving_variance_initializer": {"class_name": "Ones", "config": {}}, "beta_regularizer": null, "gamma_regularizer": null, "beta_constraint": null, "gamma_constraint": null}, "name": "conv4_block2_1_bn", "inbound_nodes": [[["conv4_block2_1_conv", 0, 0, {}]]]}, {"class_name": "Activation", "config": {"name": "conv4_block2_1_relu", "trainable": false, "dtype": "float32", "activation": "relu"}, "name": "conv4_block2_1_relu", "inbound_nodes": [[["conv4_block2_1_bn", 0, 0, {}]]]}, {"class_name": "Conv2D", "config": {"name": "conv4_block2_2_conv", "trainable": false, "dtype": "float32", "filters": 32, "kernel_size": [3, 3], "strides": [1, 1], "padding": "same", "data_format": "channels_last", "dilation_rate": [1, 1], "activation": "linear", "use_bias": false, "kernel_initializer": {"class_name": "GlorotUniform", "config": {"seed": null}}, "bias_initializer": {"class_name": "Zeros", "config": {}}, "kernel_regularizer": null, "bias_regularizer": null, "activity_regularizer": null, "kernel_constraint": null, "bias_constraint": null}, "name": "conv4_block2_2_conv", "inbound_nodes": [[["conv4_block2_1_relu", 0, 0, {}]]]}, {"class_name": "Concatenate", "config": {"name": "conv4_block2_concat", "trainable": false, "dtype": "float32", "axis": 3}, "name": "conv4_block2_concat", "inbound_nodes": [[["conv4_block1_concat", 0, 0, {}], ["conv4_block2_2_conv", 0, 0, {}]]]}, {"class_name": "BatchNormalization", "config": {"name": "conv4_block3_0_bn", "trainable": false, "dtype": "float32", "axis": [3], "momentum": 0.99, "epsilon": 1.001e-05, "center": true, "scale": true, "beta_initializer": {"class_name": "Zeros", "config": {}}, "gamma_initializer": {"class_name": "Ones", "config": {}}, "moving_mean_initializer": {"class_name": "Zeros", "config": {}}, "moving_variance_initializer": {"class_name": "Ones", "config": {}}, "beta_regularizer": null, "gamma_regularizer": null, "beta_constraint": null, "gamma_constraint": null}, "name": "conv4_block3_0_bn", "inbound_nodes": [[["conv4_block2_concat", 0, 0, {}]]]}, {"class_name": "Activation", "config": {"name": "conv4_block3_0_relu", "trainable": false, "dtype": "float32", "activation": "relu"}, "name": "conv4_block3_0_relu", "inbound_nodes": [[["conv4_block3_0_bn", 0, 0, {}]]]}, {"class_name": "Conv2D", "config": {"name": "conv4_block3_1_conv", "trainable": false, "dtype": "float32", "filters": 128, "kernel_size": [1, 1], "strides": [1, 1], "padding": "valid", "data_format": "channels_last", "dilation_rate": [1, 1], "activation": "linear", "use_bias": false, "kernel_initializer": {"class_name": "GlorotUniform", "config": {"seed": null}}, "bias_initializer": {"class_name": "Zeros", "config": {}}, "kernel_regularizer": null, "bias_regularizer": null, "activity_regularizer": null, "kernel_constraint": null, "bias_constraint": null}, "name": "conv4_block3_1_conv", "inbound_nodes": [[["conv4_block3_0_relu", 0, 0, {}]]]}, {"class_name": "BatchNormalization", "config": {"name": "conv4_block3_1_bn", "trainable": false, "dtype": "float32", "axis": [3], "momentum": 0.99, "epsilon": 1.001e-05, "center": true, "scale": true, "beta_initializer": {"class_name": "Zeros", "config": {}}, "gamma_initializer": {"class_name": "Ones", "config": {}}, "moving_mean_initializer": {"class_name": "Zeros", "config": {}}, "moving_variance_initializer": {"class_name": "Ones", "config": {}}, "beta_regularizer": null, "gamma_regularizer": null, "beta_constraint": null, "gamma_constraint": null}, "name": "conv4_block3_1_bn", "inbound_nodes": [[["conv4_block3_1_conv", 0, 0, {}]]]}, {"class_name": "Activation", "config": {"name": "conv4_block3_1_relu", "trainable": false, "dtype": "float32", "activation": "relu"}, "name": "conv4_block3_1_relu", "inbound_nodes": [[["conv4_block3_1_bn", 0, 0, {}]]]}, {"class_name": "Conv2D", "config": {"name": "conv4_block3_2_conv", "trainable": false, "dtype": "float32", "filters": 32, "kernel_size": [3, 3], "strides": [1, 1], "padding": "same", "data_format": "channels_last", "dilation_rate": [1, 1], "activation": "linear", "use_bias": false, "kernel_initializer": {"class_name": "GlorotUniform", "config": {"seed": null}}, "bias_initializer": {"class_name": "Zeros", "config": {}}, "kernel_regularizer": null, "bias_regularizer": null, "activity_regularizer": null, "kernel_constraint": null, "bias_constraint": null}, "name": "conv4_block3_2_conv", "inbound_nodes": [[["conv4_block3_1_relu", 0, 0, {}]]]}, {"class_name": "Concatenate", "config": {"name": "conv4_block3_concat", "trainable": false, "dtype": "float32", "axis": 3}, "name": "conv4_block3_concat", "inbound_nodes": [[["conv4_block2_concat", 0, 0, {}], ["conv4_block3_2_conv", 0, 0, {}]]]}, {"class_name": "BatchNormalization", "config": {"name": "conv4_block4_0_bn", "trainable": false, "dtype": "float32", "axis": [3], "momentum": 0.99, "epsilon": 1.001e-05, "center": true, "scale": true, "beta_initializer": {"class_name": "Zeros", "config": {}}, "gamma_initializer": {"class_name": "Ones", "config": {}}, "moving_mean_initializer": {"class_name": "Zeros", "config": {}}, "moving_variance_initializer": {"class_name": "Ones", "config": {}}, "beta_regularizer": null, "gamma_regularizer": null, "beta_constraint": null, "gamma_constraint": null}, "name": "conv4_block4_0_bn", "inbound_nodes": [[["conv4_block3_concat", 0, 0, {}]]]}, {"class_name": "Activation", "config": {"name": "conv4_block4_0_relu", "trainable": false, "dtype": "float32", "activation": "relu"}, "name": "conv4_block4_0_relu", "inbound_nodes": [[["conv4_block4_0_bn", 0, 0, {}]]]}, {"class_name": "Conv2D", "config": {"name": "conv4_block4_1_conv", "trainable": false, "dtype": "float32", "filters": 128, "kernel_size": [1, 1], "strides": [1, 1], "padding": "valid", "data_format": "channels_last", "dilation_rate": [1, 1], "activation": "linear", "use_bias": false, "kernel_initializer": {"class_name": "GlorotUniform", "config": {"seed": null}}, "bias_initializer": {"class_name": "Zeros", "config": {}}, "kernel_regularizer": null, "bias_regularizer": null, "activity_regularizer": null, "kernel_constraint": null, "bias_constraint": null}, "name": "conv4_block4_1_conv", "inbound_nodes": [[["conv4_block4_0_relu", 0, 0, {}]]]}, {"class_name": "BatchNormalization", "config": {"name": "conv4_block4_1_bn", "trainable": false, "dtype": "float32", "axis": [3], "momentum": 0.99, "epsilon": 1.001e-05, "center": true, "scale": true, "beta_initializer": {"class_name": "Zeros", "config": {}}, "gamma_initializer": {"class_name": "Ones", "config": {}}, "moving_mean_initializer": {"class_name": "Zeros", "config": {}}, "moving_variance_initializer": {"class_name": "Ones", "config": {}}, "beta_regularizer": null, "gamma_regularizer": null, "beta_constraint": null, "gamma_constraint": null}, "name": "conv4_block4_1_bn", "inbound_nodes": [[["conv4_block4_1_conv", 0, 0, {}]]]}, {"class_name": "Activation", "config": {"name": "conv4_block4_1_relu", "trainable": false, "dtype": "float32", "activation": "relu"}, "name": "conv4_block4_1_relu", "inbound_nodes": [[["conv4_block4_1_bn", 0, 0, {}]]]}, {"class_name": "Conv2D", "config": {"name": "conv4_block4_2_conv", "trainable": false, "dtype": "float32", "filters": 32, "kernel_size": [3, 3], "strides": [1, 1], "padding": "same", "data_format": "channels_last", "dilation_rate": [1, 1], "activation": "linear", "use_bias": false, "kernel_initializer": {"class_name": "GlorotUniform", "config": {"seed": null}}, "bias_initializer": {"class_name": "Zeros", "config": {}}, "kernel_regularizer": null, "bias_regularizer": null, "activity_regularizer": null, "kernel_constraint": null, "bias_constraint": null}, "name": "conv4_block4_2_conv", "inbound_nodes": [[["conv4_block4_1_relu", 0, 0, {}]]]}, {"class_name": "Concatenate", "config": {"name": "conv4_block4_concat", "trainable": false, "dtype": "float32", "axis": 3}, "name": "conv4_block4_concat", "inbound_nodes": [[["conv4_block3_concat", 0, 0, {}], ["conv4_block4_2_conv", 0, 0, {}]]]}, {"class_name": "BatchNormalization", "config": {"name": "conv4_block5_0_bn", "trainable": false, "dtype": "float32", "axis": [3], "momentum": 0.99, "epsilon": 1.001e-05, "center": true, "scale": true, "beta_initializer": {"class_name": "Zeros", "config": {}}, "gamma_initializer": {"class_name": "Ones", "config": {}}, "moving_mean_initializer": {"class_name": "Zeros", "config": {}}, "moving_variance_initializer": {"class_name": "Ones", "config": {}}, "beta_regularizer": null, "gamma_regularizer": null, "beta_constraint": null, "gamma_constraint": null}, "name": "conv4_block5_0_bn", "inbound_nodes": [[["conv4_block4_concat", 0, 0, {}]]]}, {"class_name": "Activation", "config": {"name": "conv4_block5_0_relu", "trainable": false, "dtype": "float32", "activation": "relu"}, "name": "conv4_block5_0_relu", "inbound_nodes": [[["conv4_block5_0_bn", 0, 0, {}]]]}, {"class_name": "Conv2D", "config": {"name": "conv4_block5_1_conv", "trainable": false, "dtype": "float32", "filters": 128, "kernel_size": [1, 1], "strides": [1, 1], "padding": "valid", "data_format": "channels_last", "dilation_rate": [1, 1], "activation": "linear", "use_bias": false, "kernel_initializer": {"class_name": "GlorotUniform", "config": {"seed": null}}, "bias_initializer": {"class_name": "Zeros", "config": {}}, "kernel_regularizer": null, "bias_regularizer": null, "activity_regularizer": null, "kernel_constraint": null, "bias_constraint": null}, "name": "conv4_block5_1_conv", "inbound_nodes": [[["conv4_block5_0_relu", 0, 0, {}]]]}, {"class_name": "BatchNormalization", "config": {"name": "conv4_block5_1_bn", "trainable": false, "dtype": "float32", "axis": [3], "momentum": 0.99, "epsilon": 1.001e-05, "center": true, "scale": true, "beta_initializer": {"class_name": "Zeros", "config": {}}, "gamma_initializer": {"class_name": "Ones", "config": {}}, "moving_mean_initializer": {"class_name": "Zeros", "config": {}}, "moving_variance_initializer": {"class_name": "Ones", "config": {}}, "beta_regularizer": null, "gamma_regularizer": null, "beta_constraint": null, "gamma_constraint": null}, "name": "conv4_block5_1_bn", "inbound_nodes": [[["conv4_block5_1_conv", 0, 0, {}]]]}, {"class_name": "Activation", "config": {"name": "conv4_block5_1_relu", "trainable": false, "dtype": "float32", "activation": "relu"}, "name": "conv4_block5_1_relu", "inbound_nodes": [[["conv4_block5_1_bn", 0, 0, {}]]]}, {"class_name": "Conv2D", "config": {"name": "conv4_block5_2_conv", "trainable": false, "dtype": "float32", "filters": 32, "kernel_size": [3, 3], "strides": [1, 1], "padding": "same", "data_format": "channels_last", "dilation_rate": [1, 1], "activation": "linear", "use_bias": false, "kernel_initializer": {"class_name": "GlorotUniform", "config": {"seed": null}}, "bias_initializer": {"class_name": "Zeros", "config": {}}, "kernel_regularizer": null, "bias_regularizer": null, "activity_regularizer": null, "kernel_constraint": null, "bias_constraint": null}, "name": "conv4_block5_2_conv", "inbound_nodes": [[["conv4_block5_1_relu", 0, 0, {}]]]}, {"class_name": "Concatenate", "config": {"name": "conv4_block5_concat", "trainable": false, "dtype": "float32", "axis": 3}, "name": "conv4_block5_concat", "inbound_nodes": [[["conv4_block4_concat", 0, 0, {}], ["conv4_block5_2_conv", 0, 0, {}]]]}, {"class_name": "BatchNormalization", "config": {"name": "conv4_block6_0_bn", "trainable": false, "dtype": "float32", "axis": [3], "momentum": 0.99, "epsilon": 1.001e-05, "center": true, "scale": true, "beta_initializer": {"class_name": "Zeros", "config": {}}, "gamma_initializer": {"class_name": "Ones", "config": {}}, "moving_mean_initializer": {"class_name": "Zeros", "config": {}}, "moving_variance_initializer": {"class_name": "Ones", "config": {}}, "beta_regularizer": null, "gamma_regularizer": null, "beta_constraint": null, "gamma_constraint": null}, "name": "conv4_block6_0_bn", "inbound_nodes": [[["conv4_block5_concat", 0, 0, {}]]]}, {"class_name": "Activation", "config": {"name": "conv4_block6_0_relu", "trainable": false, "dtype": "float32", "activation": "relu"}, "name": "conv4_block6_0_relu", "inbound_nodes": [[["conv4_block6_0_bn", 0, 0, {}]]]}, {"class_name": "Conv2D", "config": {"name": "conv4_block6_1_conv", "trainable": false, "dtype": "float32", "filters": 128, "kernel_size": [1, 1], "strides": [1, 1], "padding": "valid", "data_format": "channels_last", "dilation_rate": [1, 1], "activation": "linear", "use_bias": false, "kernel_initializer": {"class_name": "GlorotUniform", "config": {"seed": null}}, "bias_initializer": {"class_name": "Zeros", "config": {}}, "kernel_regularizer": null, "bias_regularizer": null, "activity_regularizer": null, "kernel_constraint": null, "bias_constraint": null}, "name": "conv4_block6_1_conv", "inbound_nodes": [[["conv4_block6_0_relu", 0, 0, {}]]]}, {"class_name": "BatchNormalization", "config": {"name": "conv4_block6_1_bn", "trainable": false, "dtype": "float32", "axis": [3], "momentum": 0.99, "epsilon": 1.001e-05, "center": true, "scale": true, "beta_initializer": {"class_name": "Zeros", "config": {}}, "gamma_initializer": {"class_name": "Ones", "config": {}}, "moving_mean_initializer": {"class_name": "Zeros", "config": {}}, "moving_variance_initializer": {"class_name": "Ones", "config": {}}, "beta_regularizer": null, "gamma_regularizer": null, "beta_constraint": null, "gamma_constraint": null}, "name": "conv4_block6_1_bn", "inbound_nodes": [[["conv4_block6_1_conv", 0, 0, {}]]]}, {"class_name": "Activation", "config": {"name": "conv4_block6_1_relu", "trainable": false, "dtype": "float32", "activation": "relu"}, "name": "conv4_block6_1_relu", "inbound_nodes": [[["conv4_block6_1_bn", 0, 0, {}]]]}, {"class_name": "Conv2D", "config": {"name": "conv4_block6_2_conv", "trainable": false, "dtype": "float32", "filters": 32, "kernel_size": [3, 3], "strides": [1, 1], "padding": "same", "data_format": "channels_last", "dilation_rate": [1, 1], "activation": "linear", "use_bias": false, "kernel_initializer": {"class_name": "GlorotUniform", "config": {"seed": null}}, "bias_initializer": {"class_name": "Zeros", "config": {}}, "kernel_regularizer": null, "bias_regularizer": null, "activity_regularizer": null, "kernel_constraint": null, "bias_constraint": null}, "name": "conv4_block6_2_conv", "inbound_nodes": [[["conv4_block6_1_relu", 0, 0, {}]]]}, {"class_name": "Concatenate", "config": {"name": "conv4_block6_concat", "trainable": false, "dtype": "float32", "axis": 3}, "name": "conv4_block6_concat", "inbound_nodes": [[["conv4_block5_concat", 0, 0, {}], ["conv4_block6_2_conv", 0, 0, {}]]]}, {"class_name": "BatchNormalization", "config": {"name": "conv4_block7_0_bn", "trainable": false, "dtype": "float32", "axis": [3], "momentum": 0.99, "epsilon": 1.001e-05, "center": true, "scale": true, "beta_initializer": {"class_name": "Zeros", "config": {}}, "gamma_initializer": {"class_name": "Ones", "config": {}}, "moving_mean_initializer": {"class_name": "Zeros", "config": {}}, "moving_variance_initializer": {"class_name": "Ones", "config": {}}, "beta_regularizer": null, "gamma_regularizer": null, "beta_constraint": null, "gamma_constraint": null}, "name": "conv4_block7_0_bn", "inbound_nodes": [[["conv4_block6_concat", 0, 0, {}]]]}, {"class_name": "Activation", "config": {"name": "conv4_block7_0_relu", "trainable": false, "dtype": "float32", "activation": "relu"}, "name": "conv4_block7_0_relu", "inbound_nodes": [[["conv4_block7_0_bn", 0, 0, {}]]]}, {"class_name": "Conv2D", "config": {"name": "conv4_block7_1_conv", "trainable": false, "dtype": "float32", "filters": 128, "kernel_size": [1, 1], "strides": [1, 1], "padding": "valid", "data_format": "channels_last", "dilation_rate": [1, 1], "activation": "linear", "use_bias": false, "kernel_initializer": {"class_name": "GlorotUniform", "config": {"seed": null}}, "bias_initializer": {"class_name": "Zeros", "config": {}}, "kernel_regularizer": null, "bias_regularizer": null, "activity_regularizer": null, "kernel_constraint": null, "bias_constraint": null}, "name": "conv4_block7_1_conv", "inbound_nodes": [[["conv4_block7_0_relu", 0, 0, {}]]]}, {"class_name": "BatchNormalization", "config": {"name": "conv4_block7_1_bn", "trainable": false, "dtype": "float32", "axis": [3], "momentum": 0.99, "epsilon": 1.001e-05, "center": true, "scale": true, "beta_initializer": {"class_name": "Zeros", "config": {}}, "gamma_initializer": {"class_name": "Ones", "config": {}}, "moving_mean_initializer": {"class_name": "Zeros", "config": {}}, "moving_variance_initializer": {"class_name": "Ones", "config": {}}, "beta_regularizer": null, "gamma_regularizer": null, "beta_constraint": null, "gamma_constraint": null}, "name": "conv4_block7_1_bn", "inbound_nodes": [[["conv4_block7_1_conv", 0, 0, {}]]]}, {"class_name": "Activation", "config": {"name": "conv4_block7_1_relu", "trainable": false, "dtype": "float32", "activation": "relu"}, "name": "conv4_block7_1_relu", "inbound_nodes": [[["conv4_block7_1_bn", 0, 0, {}]]]}, {"class_name": "Conv2D", "config": {"name": "conv4_block7_2_conv", "trainable": false, "dtype": "float32", "filters": 32, "kernel_size": [3, 3], "strides": [1, 1], "padding": "same", "data_format": "channels_last", "dilation_rate": [1, 1], "activation": "linear", "use_bias": false, "kernel_initializer": {"class_name": "GlorotUniform", "config": {"seed": null}}, "bias_initializer": {"class_name": "Zeros", "config": {}}, "kernel_regularizer": null, "bias_regularizer": null, "activity_regularizer": null, "kernel_constraint": null, "bias_constraint": null}, "name": "conv4_block7_2_conv", "inbound_nodes": [[["conv4_block7_1_relu", 0, 0, {}]]]}, {"class_name": "Concatenate", "config": {"name": "conv4_block7_concat", "trainable": false, "dtype": "float32", "axis": 3}, "name": "conv4_block7_concat", "inbound_nodes": [[["conv4_block6_concat", 0, 0, {}], ["conv4_block7_2_conv", 0, 0, {}]]]}, {"class_name": "BatchNormalization", "config": {"name": "conv4_block8_0_bn", "trainable": false, "dtype": "float32", "axis": [3], "momentum": 0.99, "epsilon": 1.001e-05, "center": true, "scale": true, "beta_initializer": {"class_name": "Zeros", "config": {}}, "gamma_initializer": {"class_name": "Ones", "config": {}}, "moving_mean_initializer": {"class_name": "Zeros", "config": {}}, "moving_variance_initializer": {"class_name": "Ones", "config": {}}, "beta_regularizer": null, "gamma_regularizer": null, "beta_constraint": null, "gamma_constraint": null}, "name": "conv4_block8_0_bn", "inbound_nodes": [[["conv4_block7_concat", 0, 0, {}]]]}, {"class_name": "Activation", "config": {"name": "conv4_block8_0_relu", "trainable": false, "dtype": "float32", "activation": "relu"}, "name": "conv4_block8_0_relu", "inbound_nodes": [[["conv4_block8_0_bn", 0, 0, {}]]]}, {"class_name": "Conv2D", "config": {"name": "conv4_block8_1_conv", "trainable": false, "dtype": "float32", "filters": 128, "kernel_size": [1, 1], "strides": [1, 1], "padding": "valid", "data_format": "channels_last", "dilation_rate": [1, 1], "activation": "linear", "use_bias": false, "kernel_initializer": {"class_name": "GlorotUniform", "config": {"seed": null}}, "bias_initializer": {"class_name": "Zeros", "config": {}}, "kernel_regularizer": null, "bias_regularizer": null, "activity_regularizer": null, "kernel_constraint": null, "bias_constraint": null}, "name": "conv4_block8_1_conv", "inbound_nodes": [[["conv4_block8_0_relu", 0, 0, {}]]]}, {"class_name": "BatchNormalization", "config": {"name": "conv4_block8_1_bn", "trainable": false, "dtype": "float32", "axis": [3], "momentum": 0.99, "epsilon": 1.001e-05, "center": true, "scale": true, "beta_initializer": {"class_name": "Zeros", "config": {}}, "gamma_initializer": {"class_name": "Ones", "config": {}}, "moving_mean_initializer": {"class_name": "Zeros", "config": {}}, "moving_variance_initializer": {"class_name": "Ones", "config": {}}, "beta_regularizer": null, "gamma_regularizer": null, "beta_constraint": null, "gamma_constraint": null}, "name": "conv4_block8_1_bn", "inbound_nodes": [[["conv4_block8_1_conv", 0, 0, {}]]]}, {"class_name": "Activation", "config": {"name": "conv4_block8_1_relu", "trainable": false, "dtype": "float32", "activation": "relu"}, "name": "conv4_block8_1_relu", "inbound_nodes": [[["conv4_block8_1_bn", 0, 0, {}]]]}, {"class_name": "Conv2D", "config": {"name": "conv4_block8_2_conv", "trainable": false, "dtype": "float32", "filters": 32, "kernel_size": [3, 3], "strides": [1, 1], "padding": "same", "data_format": "channels_last", "dilation_rate": [1, 1], "activation": "linear", "use_bias": false, "kernel_initializer": {"class_name": "GlorotUniform", "config": {"seed": null}}, "bias_initializer": {"class_name": "Zeros", "config": {}}, "kernel_regularizer": null, "bias_regularizer": null, "activity_regularizer": null, "kernel_constraint": null, "bias_constraint": null}, "name": "conv4_block8_2_conv", "inbound_nodes": [[["conv4_block8_1_relu", 0, 0, {}]]]}, {"class_name": "Concatenate", "config": {"name": "conv4_block8_concat", "trainable": false, "dtype": "float32", "axis": 3}, "name": "conv4_block8_concat", "inbound_nodes": [[["conv4_block7_concat", 0, 0, {}], ["conv4_block8_2_conv", 0, 0, {}]]]}, {"class_name": "BatchNormalization", "config": {"name": "conv4_block9_0_bn", "trainable": false, "dtype": "float32", "axis": [3], "momentum": 0.99, "epsilon": 1.001e-05, "center": true, "scale": true, "beta_initializer": {"class_name": "Zeros", "config": {}}, "gamma_initializer": {"class_name": "Ones", "config": {}}, "moving_mean_initializer": {"class_name": "Zeros", "config": {}}, "moving_variance_initializer": {"class_name": "Ones", "config": {}}, "beta_regularizer": null, "gamma_regularizer": null, "beta_constraint": null, "gamma_constraint": null}, "name": "conv4_block9_0_bn", "inbound_nodes": [[["conv4_block8_concat", 0, 0, {}]]]}, {"class_name": "Activation", "config": {"name": "conv4_block9_0_relu", "trainable": false, "dtype": "float32", "activation": "relu"}, "name": "conv4_block9_0_relu", "inbound_nodes": [[["conv4_block9_0_bn", 0, 0, {}]]]}, {"class_name": "Conv2D", "config": {"name": "conv4_block9_1_conv", "trainable": false, "dtype": "float32", "filters": 128, "kernel_size": [1, 1], "strides": [1, 1], "padding": "valid", "data_format": "channels_last", "dilation_rate": [1, 1], "activation": "linear", "use_bias": false, "kernel_initializer": {"class_name": "GlorotUniform", "config": {"seed": null}}, "bias_initializer": {"class_name": "Zeros", "config": {}}, "kernel_regularizer": null, "bias_regularizer": null, "activity_regularizer": null, "kernel_constraint": null, "bias_constraint": null}, "name": "conv4_block9_1_conv", "inbound_nodes": [[["conv4_block9_0_relu", 0, 0, {}]]]}, {"class_name": "BatchNormalization", "config": {"name": "conv4_block9_1_bn", "trainable": false, "dtype": "float32", "axis": [3], "momentum": 0.99, "epsilon": 1.001e-05, "center": true, "scale": true, "beta_initializer": {"class_name": "Zeros", "config": {}}, "gamma_initializer": {"class_name": "Ones", "config": {}}, "moving_mean_initializer": {"class_name": "Zeros", "config": {}}, "moving_variance_initializer": {"class_name": "Ones", "config": {}}, "beta_regularizer": null, "gamma_regularizer": null, "beta_constraint": null, "gamma_constraint": null}, "name": "conv4_block9_1_bn", "inbound_nodes": [[["conv4_block9_1_conv", 0, 0, {}]]]}, {"class_name": "Activation", "config": {"name": "conv4_block9_1_relu", "trainable": false, "dtype": "float32", "activation": "relu"}, "name": "conv4_block9_1_relu", "inbound_nodes": [[["conv4_block9_1_bn", 0, 0, {}]]]}, {"class_name": "Conv2D", "config": {"name": "conv4_block9_2_conv", "trainable": false, "dtype": "float32", "filters": 32, "kernel_size": [3, 3], "strides": [1, 1], "padding": "same", "data_format": "channels_last", "dilation_rate": [1, 1], "activation": "linear", "use_bias": false, "kernel_initializer": {"class_name": "GlorotUniform", "config": {"seed": null}}, "bias_initializer": {"class_name": "Zeros", "config": {}}, "kernel_regularizer": null, "bias_regularizer": null, "activity_regularizer": null, "kernel_constraint": null, "bias_constraint": null}, "name": "conv4_block9_2_conv", "inbound_nodes": [[["conv4_block9_1_relu", 0, 0, {}]]]}, {"class_name": "Concatenate", "config": {"name": "conv4_block9_concat", "trainable": false, "dtype": "float32", "axis": 3}, "name": "conv4_block9_concat", "inbound_nodes": [[["conv4_block8_concat", 0, 0, {}], ["conv4_block9_2_conv", 0, 0, {}]]]}, {"class_name": "BatchNormalization", "config": {"name": "conv4_block10_0_bn", "trainable": false, "dtype": "float32", "axis": [3], "momentum": 0.99, "epsilon": 1.001e-05, "center": true, "scale": true, "beta_initializer": {"class_name": "Zeros", "config": {}}, "gamma_initializer": {"class_name": "Ones", "config": {}}, "moving_mean_initializer": {"class_name": "Zeros", "config": {}}, "moving_variance_initializer": {"class_name": "Ones", "config": {}}, "beta_regularizer": null, "gamma_regularizer": null, "beta_constraint": null, "gamma_constraint": null}, "name": "conv4_block10_0_bn", "inbound_nodes": [[["conv4_block9_concat", 0, 0, {}]]]}, {"class_name": "Activation", "config": {"name": "conv4_block10_0_relu", "trainable": false, "dtype": "float32", "activation": "relu"}, "name": "conv4_block10_0_relu", "inbound_nodes": [[["conv4_block10_0_bn", 0, 0, {}]]]}, {"class_name": "Conv2D", "config": {"name": "conv4_block10_1_conv", "trainable": false, "dtype": "float32", "filters": 128, "kernel_size": [1, 1], "strides": [1, 1], "padding": "valid", "data_format": "channels_last", "dilation_rate": [1, 1], "activation": "linear", "use_bias": false, "kernel_initializer": {"class_name": "GlorotUniform", "config": {"seed": null}}, "bias_initializer": {"class_name": "Zeros", "config": {}}, "kernel_regularizer": null, "bias_regularizer": null, "activity_regularizer": null, "kernel_constraint": null, "bias_constraint": null}, "name": "conv4_block10_1_conv", "inbound_nodes": [[["conv4_block10_0_relu", 0, 0, {}]]]}, {"class_name": "BatchNormalization", "config": {"name": "conv4_block10_1_bn", "trainable": false, "dtype": "float32", "axis": [3], "momentum": 0.99, "epsilon": 1.001e-05, "center": true, "scale": true, "beta_initializer": {"class_name": "Zeros", "config": {}}, "gamma_initializer": {"class_name": "Ones", "config": {}}, "moving_mean_initializer": {"class_name": "Zeros", "config": {}}, "moving_variance_initializer": {"class_name": "Ones", "config": {}}, "beta_regularizer": null, "gamma_regularizer": null, "beta_constraint": null, "gamma_constraint": null}, "name": "conv4_block10_1_bn", "inbound_nodes": [[["conv4_block10_1_conv", 0, 0, {}]]]}, {"class_name": "Activation", "config": {"name": "conv4_block10_1_relu", "trainable": false, "dtype": "float32", "activation": "relu"}, "name": "conv4_block10_1_relu", "inbound_nodes": [[["conv4_block10_1_bn", 0, 0, {}]]]}, {"class_name": "Conv2D", "config": {"name": "conv4_block10_2_conv", "trainable": false, "dtype": "float32", "filters": 32, "kernel_size": [3, 3], "strides": [1, 1], "padding": "same", "data_format": "channels_last", "dilation_rate": [1, 1], "activation": "linear", "use_bias": false, "kernel_initializer": {"class_name": "GlorotUniform", "config": {"seed": null}}, "bias_initializer": {"class_name": "Zeros", "config": {}}, "kernel_regularizer": null, "bias_regularizer": null, "activity_regularizer": null, "kernel_constraint": null, "bias_constraint": null}, "name": "conv4_block10_2_conv", "inbound_nodes": [[["conv4_block10_1_relu", 0, 0, {}]]]}, {"class_name": "Concatenate", "config": {"name": "conv4_block10_concat", "trainable": false, "dtype": "float32", "axis": 3}, "name": "conv4_block10_concat", "inbound_nodes": [[["conv4_block9_concat", 0, 0, {}], ["conv4_block10_2_conv", 0, 0, {}]]]}, {"class_name": "BatchNormalization", "config": {"name": "conv4_block11_0_bn", "trainable": false, "dtype": "float32", "axis": [3], "momentum": 0.99, "epsilon": 1.001e-05, "center": true, "scale": true, "beta_initializer": {"class_name": "Zeros", "config": {}}, "gamma_initializer": {"class_name": "Ones", "config": {}}, "moving_mean_initializer": {"class_name": "Zeros", "config": {}}, "moving_variance_initializer": {"class_name": "Ones", "config": {}}, "beta_regularizer": null, "gamma_regularizer": null, "beta_constraint": null, "gamma_constraint": null}, "name": "conv4_block11_0_bn", "inbound_nodes": [[["conv4_block10_concat", 0, 0, {}]]]}, {"class_name": "Activation", "config": {"name": "conv4_block11_0_relu", "trainable": false, "dtype": "float32", "activation": "relu"}, "name": "conv4_block11_0_relu", "inbound_nodes": [[["conv4_block11_0_bn", 0, 0, {}]]]}, {"class_name": "Conv2D", "config": {"name": "conv4_block11_1_conv", "trainable": false, "dtype": "float32", "filters": 128, "kernel_size": [1, 1], "strides": [1, 1], "padding": "valid", "data_format": "channels_last", "dilation_rate": [1, 1], "activation": "linear", "use_bias": false, "kernel_initializer": {"class_name": "GlorotUniform", "config": {"seed": null}}, "bias_initializer": {"class_name": "Zeros", "config": {}}, "kernel_regularizer": null, "bias_regularizer": null, "activity_regularizer": null, "kernel_constraint": null, "bias_constraint": null}, "name": "conv4_block11_1_conv", "inbound_nodes": [[["conv4_block11_0_relu", 0, 0, {}]]]}, {"class_name": "BatchNormalization", "config": {"name": "conv4_block11_1_bn", "trainable": false, "dtype": "float32", "axis": [3], "momentum": 0.99, "epsilon": 1.001e-05, "center": true, "scale": true, "beta_initializer": {"class_name": "Zeros", "config": {}}, "gamma_initializer": {"class_name": "Ones", "config": {}}, "moving_mean_initializer": {"class_name": "Zeros", "config": {}}, "moving_variance_initializer": {"class_name": "Ones", "config": {}}, "beta_regularizer": null, "gamma_regularizer": null, "beta_constraint": null, "gamma_constraint": null}, "name": "conv4_block11_1_bn", "inbound_nodes": [[["conv4_block11_1_conv", 0, 0, {}]]]}, {"class_name": "Activation", "config": {"name": "conv4_block11_1_relu", "trainable": false, "dtype": "float32", "activation": "relu"}, "name": "conv4_block11_1_relu", "inbound_nodes": [[["conv4_block11_1_bn", 0, 0, {}]]]}, {"class_name": "Conv2D", "config": {"name": "conv4_block11_2_conv", "trainable": false, "dtype": "float32", "filters": 32, "kernel_size": [3, 3], "strides": [1, 1], "padding": "same", "data_format": "channels_last", "dilation_rate": [1, 1], "activation": "linear", "use_bias": false, "kernel_initializer": {"class_name": "GlorotUniform", "config": {"seed": null}}, "bias_initializer": {"class_name": "Zeros", "config": {}}, "kernel_regularizer": null, "bias_regularizer": null, "activity_regularizer": null, "kernel_constraint": null, "bias_constraint": null}, "name": "conv4_block11_2_conv", "inbound_nodes": [[["conv4_block11_1_relu", 0, 0, {}]]]}, {"class_name": "Concatenate", "config": {"name": "conv4_block11_concat", "trainable": false, "dtype": "float32", "axis": 3}, "name": "conv4_block11_concat", "inbound_nodes": [[["conv4_block10_concat", 0, 0, {}], ["conv4_block11_2_conv", 0, 0, {}]]]}, {"class_name": "BatchNormalization", "config": {"name": "conv4_block12_0_bn", "trainable": false, "dtype": "float32", "axis": [3], "momentum": 0.99, "epsilon": 1.001e-05, "center": true, "scale": true, "beta_initializer": {"class_name": "Zeros", "config": {}}, "gamma_initializer": {"class_name": "Ones", "config": {}}, "moving_mean_initializer": {"class_name": "Zeros", "config": {}}, "moving_variance_initializer": {"class_name": "Ones", "config": {}}, "beta_regularizer": null, "gamma_regularizer": null, "beta_constraint": null, "gamma_constraint": null}, "name": "conv4_block12_0_bn", "inbound_nodes": [[["conv4_block11_concat", 0, 0, {}]]]}, {"class_name": "Activation", "config": {"name": "conv4_block12_0_relu", "trainable": false, "dtype": "float32", "activation": "relu"}, "name": "conv4_block12_0_relu", "inbound_nodes": [[["conv4_block12_0_bn", 0, 0, {}]]]}, {"class_name": "Conv2D", "config": {"name": "conv4_block12_1_conv", "trainable": false, "dtype": "float32", "filters": 128, "kernel_size": [1, 1], "strides": [1, 1], "padding": "valid", "data_format": "channels_last", "dilation_rate": [1, 1], "activation": "linear", "use_bias": false, "kernel_initializer": {"class_name": "GlorotUniform", "config": {"seed": null}}, "bias_initializer": {"class_name": "Zeros", "config": {}}, "kernel_regularizer": null, "bias_regularizer": null, "activity_regularizer": null, "kernel_constraint": null, "bias_constraint": null}, "name": "conv4_block12_1_conv", "inbound_nodes": [[["conv4_block12_0_relu", 0, 0, {}]]]}, {"class_name": "BatchNormalization", "config": {"name": "conv4_block12_1_bn", "trainable": false, "dtype": "float32", "axis": [3], "momentum": 0.99, "epsilon": 1.001e-05, "center": true, "scale": true, "beta_initializer": {"class_name": "Zeros", "config": {}}, "gamma_initializer": {"class_name": "Ones", "config": {}}, "moving_mean_initializer": {"class_name": "Zeros", "config": {}}, "moving_variance_initializer": {"class_name": "Ones", "config": {}}, "beta_regularizer": null, "gamma_regularizer": null, "beta_constraint": null, "gamma_constraint": null}, "name": "conv4_block12_1_bn", "inbound_nodes": [[["conv4_block12_1_conv", 0, 0, {}]]]}, {"class_name": "Activation", "config": {"name": "conv4_block12_1_relu", "trainable": false, "dtype": "float32", "activation": "relu"}, "name": "conv4_block12_1_relu", "inbound_nodes": [[["conv4_block12_1_bn", 0, 0, {}]]]}, {"class_name": "Conv2D", "config": {"name": "conv4_block12_2_conv", "trainable": false, "dtype": "float32", "filters": 32, "kernel_size": [3, 3], "strides": [1, 1], "padding": "same", "data_format": "channels_last", "dilation_rate": [1, 1], "activation": "linear", "use_bias": false, "kernel_initializer": {"class_name": "GlorotUniform", "config": {"seed": null}}, "bias_initializer": {"class_name": "Zeros", "config": {}}, "kernel_regularizer": null, "bias_regularizer": null, "activity_regularizer": null, "kernel_constraint": null, "bias_constraint": null}, "name": "conv4_block12_2_conv", "inbound_nodes": [[["conv4_block12_1_relu", 0, 0, {}]]]}, {"class_name": "Concatenate", "config": {"name": "conv4_block12_concat", "trainable": false, "dtype": "float32", "axis": 3}, "name": "conv4_block12_concat", "inbound_nodes": [[["conv4_block11_concat", 0, 0, {}], ["conv4_block12_2_conv", 0, 0, {}]]]}, {"class_name": "BatchNormalization", "config": {"name": "conv4_block13_0_bn", "trainable": false, "dtype": "float32", "axis": [3], "momentum": 0.99, "epsilon": 1.001e-05, "center": true, "scale": true, "beta_initializer": {"class_name": "Zeros", "config": {}}, "gamma_initializer": {"class_name": "Ones", "config": {}}, "moving_mean_initializer": {"class_name": "Zeros", "config": {}}, "moving_variance_initializer": {"class_name": "Ones", "config": {}}, "beta_regularizer": null, "gamma_regularizer": null, "beta_constraint": null, "gamma_constraint": null}, "name": "conv4_block13_0_bn", "inbound_nodes": [[["conv4_block12_concat", 0, 0, {}]]]}, {"class_name": "Activation", "config": {"name": "conv4_block13_0_relu", "trainable": false, "dtype": "float32", "activation": "relu"}, "name": "conv4_block13_0_relu", "inbound_nodes": [[["conv4_block13_0_bn", 0, 0, {}]]]}, {"class_name": "Conv2D", "config": {"name": "conv4_block13_1_conv", "trainable": false, "dtype": "float32", "filters": 128, "kernel_size": [1, 1], "strides": [1, 1], "padding": "valid", "data_format": "channels_last", "dilation_rate": [1, 1], "activation": "linear", "use_bias": false, "kernel_initializer": {"class_name": "GlorotUniform", "config": {"seed": null}}, "bias_initializer": {"class_name": "Zeros", "config": {}}, "kernel_regularizer": null, "bias_regularizer": null, "activity_regularizer": null, "kernel_constraint": null, "bias_constraint": null}, "name": "conv4_block13_1_conv", "inbound_nodes": [[["conv4_block13_0_relu", 0, 0, {}]]]}, {"class_name": "BatchNormalization", "config": {"name": "conv4_block13_1_bn", "trainable": false, "dtype": "float32", "axis": [3], "momentum": 0.99, "epsilon": 1.001e-05, "center": true, "scale": true, "beta_initializer": {"class_name": "Zeros", "config": {}}, "gamma_initializer": {"class_name": "Ones", "config": {}}, "moving_mean_initializer": {"class_name": "Zeros", "config": {}}, "moving_variance_initializer": {"class_name": "Ones", "config": {}}, "beta_regularizer": null, "gamma_regularizer": null, "beta_constraint": null, "gamma_constraint": null}, "name": "conv4_block13_1_bn", "inbound_nodes": [[["conv4_block13_1_conv", 0, 0, {}]]]}, {"class_name": "Activation", "config": {"name": "conv4_block13_1_relu", "trainable": false, "dtype": "float32", "activation": "relu"}, "name": "conv4_block13_1_relu", "inbound_nodes": [[["conv4_block13_1_bn", 0, 0, {}]]]}, {"class_name": "Conv2D", "config": {"name": "conv4_block13_2_conv", "trainable": false, "dtype": "float32", "filters": 32, "kernel_size": [3, 3], "strides": [1, 1], "padding": "same", "data_format": "channels_last", "dilation_rate": [1, 1], "activation": "linear", "use_bias": false, "kernel_initializer": {"class_name": "GlorotUniform", "config": {"seed": null}}, "bias_initializer": {"class_name": "Zeros", "config": {}}, "kernel_regularizer": null, "bias_regularizer": null, "activity_regularizer": null, "kernel_constraint": null, "bias_constraint": null}, "name": "conv4_block13_2_conv", "inbound_nodes": [[["conv4_block13_1_relu", 0, 0, {}]]]}, {"class_name": "Concatenate", "config": {"name": "conv4_block13_concat", "trainable": false, "dtype": "float32", "axis": 3}, "name": "conv4_block13_concat", "inbound_nodes": [[["conv4_block12_concat", 0, 0, {}], ["conv4_block13_2_conv", 0, 0, {}]]]}, {"class_name": "BatchNormalization", "config": {"name": "conv4_block14_0_bn", "trainable": false, "dtype": "float32", "axis": [3], "momentum": 0.99, "epsilon": 1.001e-05, "center": true, "scale": true, "beta_initializer": {"class_name": "Zeros", "config": {}}, "gamma_initializer": {"class_name": "Ones", "config": {}}, "moving_mean_initializer": {"class_name": "Zeros", "config": {}}, "moving_variance_initializer": {"class_name": "Ones", "config": {}}, "beta_regularizer": null, "gamma_regularizer": null, "beta_constraint": null, "gamma_constraint": null}, "name": "conv4_block14_0_bn", "inbound_nodes": [[["conv4_block13_concat", 0, 0, {}]]]}, {"class_name": "Activation", "config": {"name": "conv4_block14_0_relu", "trainable": false, "dtype": "float32", "activation": "relu"}, "name": "conv4_block14_0_relu", "inbound_nodes": [[["conv4_block14_0_bn", 0, 0, {}]]]}, {"class_name": "Conv2D", "config": {"name": "conv4_block14_1_conv", "trainable": false, "dtype": "float32", "filters": 128, "kernel_size": [1, 1], "strides": [1, 1], "padding": "valid", "data_format": "channels_last", "dilation_rate": [1, 1], "activation": "linear", "use_bias": false, "kernel_initializer": {"class_name": "GlorotUniform", "config": {"seed": null}}, "bias_initializer": {"class_name": "Zeros", "config": {}}, "kernel_regularizer": null, "bias_regularizer": null, "activity_regularizer": null, "kernel_constraint": null, "bias_constraint": null}, "name": "conv4_block14_1_conv", "inbound_nodes": [[["conv4_block14_0_relu", 0, 0, {}]]]}, {"class_name": "BatchNormalization", "config": {"name": "conv4_block14_1_bn", "trainable": false, "dtype": "float32", "axis": [3], "momentum": 0.99, "epsilon": 1.001e-05, "center": true, "scale": true, "beta_initializer": {"class_name": "Zeros", "config": {}}, "gamma_initializer": {"class_name": "Ones", "config": {}}, "moving_mean_initializer": {"class_name": "Zeros", "config": {}}, "moving_variance_initializer": {"class_name": "Ones", "config": {}}, "beta_regularizer": null, "gamma_regularizer": null, "beta_constraint": null, "gamma_constraint": null}, "name": "conv4_block14_1_bn", "inbound_nodes": [[["conv4_block14_1_conv", 0, 0, {}]]]}, {"class_name": "Activation", "config": {"name": "conv4_block14_1_relu", "trainable": false, "dtype": "float32", "activation": "relu"}, "name": "conv4_block14_1_relu", "inbound_nodes": [[["conv4_block14_1_bn", 0, 0, {}]]]}, {"class_name": "Conv2D", "config": {"name": "conv4_block14_2_conv", "trainable": false, "dtype": "float32", "filters": 32, "kernel_size": [3, 3], "strides": [1, 1], "padding": "same", "data_format": "channels_last", "dilation_rate": [1, 1], "activation": "linear", "use_bias": false, "kernel_initializer": {"class_name": "GlorotUniform", "config": {"seed": null}}, "bias_initializer": {"class_name": "Zeros", "config": {}}, "kernel_regularizer": null, "bias_regularizer": null, "activity_regularizer": null, "kernel_constraint": null, "bias_constraint": null}, "name": "conv4_block14_2_conv", "inbound_nodes": [[["conv4_block14_1_relu", 0, 0, {}]]]}, {"class_name": "Concatenate", "config": {"name": "conv4_block14_concat", "trainable": false, "dtype": "float32", "axis": 3}, "name": "conv4_block14_concat", "inbound_nodes": [[["conv4_block13_concat", 0, 0, {}], ["conv4_block14_2_conv", 0, 0, {}]]]}, {"class_name": "BatchNormalization", "config": {"name": "conv4_block15_0_bn", "trainable": false, "dtype": "float32", "axis": [3], "momentum": 0.99, "epsilon": 1.001e-05, "center": true, "scale": true, "beta_initializer": {"class_name": "Zeros", "config": {}}, "gamma_initializer": {"class_name": "Ones", "config": {}}, "moving_mean_initializer": {"class_name": "Zeros", "config": {}}, "moving_variance_initializer": {"class_name": "Ones", "config": {}}, "beta_regularizer": null, "gamma_regularizer": null, "beta_constraint": null, "gamma_constraint": null}, "name": "conv4_block15_0_bn", "inbound_nodes": [[["conv4_block14_concat", 0, 0, {}]]]}, {"class_name": "Activation", "config": {"name": "conv4_block15_0_relu", "trainable": false, "dtype": "float32", "activation": "relu"}, "name": "conv4_block15_0_relu", "inbound_nodes": [[["conv4_block15_0_bn", 0, 0, {}]]]}, {"class_name": "Conv2D", "config": {"name": "conv4_block15_1_conv", "trainable": false, "dtype": "float32", "filters": 128, "kernel_size": [1, 1], "strides": [1, 1], "padding": "valid", "data_format": "channels_last", "dilation_rate": [1, 1], "activation": "linear", "use_bias": false, "kernel_initializer": {"class_name": "GlorotUniform", "config": {"seed": null}}, "bias_initializer": {"class_name": "Zeros", "config": {}}, "kernel_regularizer": null, "bias_regularizer": null, "activity_regularizer": null, "kernel_constraint": null, "bias_constraint": null}, "name": "conv4_block15_1_conv", "inbound_nodes": [[["conv4_block15_0_relu", 0, 0, {}]]]}, {"class_name": "BatchNormalization", "config": {"name": "conv4_block15_1_bn", "trainable": false, "dtype": "float32", "axis": [3], "momentum": 0.99, "epsilon": 1.001e-05, "center": true, "scale": true, "beta_initializer": {"class_name": "Zeros", "config": {}}, "gamma_initializer": {"class_name": "Ones", "config": {}}, "moving_mean_initializer": {"class_name": "Zeros", "config": {}}, "moving_variance_initializer": {"class_name": "Ones", "config": {}}, "beta_regularizer": null, "gamma_regularizer": null, "beta_constraint": null, "gamma_constraint": null}, "name": "conv4_block15_1_bn", "inbound_nodes": [[["conv4_block15_1_conv", 0, 0, {}]]]}, {"class_name": "Activation", "config": {"name": "conv4_block15_1_relu", "trainable": false, "dtype": "float32", "activation": "relu"}, "name": "conv4_block15_1_relu", "inbound_nodes": [[["conv4_block15_1_bn", 0, 0, {}]]]}, {"class_name": "Conv2D", "config": {"name": "conv4_block15_2_conv", "trainable": false, "dtype": "float32", "filters": 32, "kernel_size": [3, 3], "strides": [1, 1], "padding": "same", "data_format": "channels_last", "dilation_rate": [1, 1], "activation": "linear", "use_bias": false, "kernel_initializer": {"class_name": "GlorotUniform", "config": {"seed": null}}, "bias_initializer": {"class_name": "Zeros", "config": {}}, "kernel_regularizer": null, "bias_regularizer": null, "activity_regularizer": null, "kernel_constraint": null, "bias_constraint": null}, "name": "conv4_block15_2_conv", "inbound_nodes": [[["conv4_block15_1_relu", 0, 0, {}]]]}, {"class_name": "Concatenate", "config": {"name": "conv4_block15_concat", "trainable": false, "dtype": "float32", "axis": 3}, "name": "conv4_block15_concat", "inbound_nodes": [[["conv4_block14_concat", 0, 0, {}], ["conv4_block15_2_conv", 0, 0, {}]]]}, {"class_name": "BatchNormalization", "config": {"name": "conv4_block16_0_bn", "trainable": false, "dtype": "float32", "axis": [3], "momentum": 0.99, "epsilon": 1.001e-05, "center": true, "scale": true, "beta_initializer": {"class_name": "Zeros", "config": {}}, "gamma_initializer": {"class_name": "Ones", "config": {}}, "moving_mean_initializer": {"class_name": "Zeros", "config": {}}, "moving_variance_initializer": {"class_name": "Ones", "config": {}}, "beta_regularizer": null, "gamma_regularizer": null, "beta_constraint": null, "gamma_constraint": null}, "name": "conv4_block16_0_bn", "inbound_nodes": [[["conv4_block15_concat", 0, 0, {}]]]}, {"class_name": "Activation", "config": {"name": "conv4_block16_0_relu", "trainable": false, "dtype": "float32", "activation": "relu"}, "name": "conv4_block16_0_relu", "inbound_nodes": [[["conv4_block16_0_bn", 0, 0, {}]]]}, {"class_name": "Conv2D", "config": {"name": "conv4_block16_1_conv", "trainable": false, "dtype": "float32", "filters": 128, "kernel_size": [1, 1], "strides": [1, 1], "padding": "valid", "data_format": "channels_last", "dilation_rate": [1, 1], "activation": "linear", "use_bias": false, "kernel_initializer": {"class_name": "GlorotUniform", "config": {"seed": null}}, "bias_initializer": {"class_name": "Zeros", "config": {}}, "kernel_regularizer": null, "bias_regularizer": null, "activity_regularizer": null, "kernel_constraint": null, "bias_constraint": null}, "name": "conv4_block16_1_conv", "inbound_nodes": [[["conv4_block16_0_relu", 0, 0, {}]]]}, {"class_name": "BatchNormalization", "config": {"name": "conv4_block16_1_bn", "trainable": false, "dtype": "float32", "axis": [3], "momentum": 0.99, "epsilon": 1.001e-05, "center": true, "scale": true, "beta_initializer": {"class_name": "Zeros", "config": {}}, "gamma_initializer": {"class_name": "Ones", "config": {}}, "moving_mean_initializer": {"class_name": "Zeros", "config": {}}, "moving_variance_initializer": {"class_name": "Ones", "config": {}}, "beta_regularizer": null, "gamma_regularizer": null, "beta_constraint": null, "gamma_constraint": null}, "name": "conv4_block16_1_bn", "inbound_nodes": [[["conv4_block16_1_conv", 0, 0, {}]]]}, {"class_name": "Activation", "config": {"name": "conv4_block16_1_relu", "trainable": false, "dtype": "float32", "activation": "relu"}, "name": "conv4_block16_1_relu", "inbound_nodes": [[["conv4_block16_1_bn", 0, 0, {}]]]}, {"class_name": "Conv2D", "config": {"name": "conv4_block16_2_conv", "trainable": false, "dtype": "float32", "filters": 32, "kernel_size": [3, 3], "strides": [1, 1], "padding": "same", "data_format": "channels_last", "dilation_rate": [1, 1], "activation": "linear", "use_bias": false, "kernel_initializer": {"class_name": "GlorotUniform", "config": {"seed": null}}, "bias_initializer": {"class_name": "Zeros", "config": {}}, "kernel_regularizer": null, "bias_regularizer": null, "activity_regularizer": null, "kernel_constraint": null, "bias_constraint": null}, "name": "conv4_block16_2_conv", "inbound_nodes": [[["conv4_block16_1_relu", 0, 0, {}]]]}, {"class_name": "Concatenate", "config": {"name": "conv4_block16_concat", "trainable": false, "dtype": "float32", "axis": 3}, "name": "conv4_block16_concat", "inbound_nodes": [[["conv4_block15_concat", 0, 0, {}], ["conv4_block16_2_conv", 0, 0, {}]]]}, {"class_name": "BatchNormalization", "config": {"name": "conv4_block17_0_bn", "trainable": false, "dtype": "float32", "axis": [3], "momentum": 0.99, "epsilon": 1.001e-05, "center": true, "scale": true, "beta_initializer": {"class_name": "Zeros", "config": {}}, "gamma_initializer": {"class_name": "Ones", "config": {}}, "moving_mean_initializer": {"class_name": "Zeros", "config": {}}, "moving_variance_initializer": {"class_name": "Ones", "config": {}}, "beta_regularizer": null, "gamma_regularizer": null, "beta_constraint": null, "gamma_constraint": null}, "name": "conv4_block17_0_bn", "inbound_nodes": [[["conv4_block16_concat", 0, 0, {}]]]}, {"class_name": "Activation", "config": {"name": "conv4_block17_0_relu", "trainable": false, "dtype": "float32", "activation": "relu"}, "name": "conv4_block17_0_relu", "inbound_nodes": [[["conv4_block17_0_bn", 0, 0, {}]]]}, {"class_name": "Conv2D", "config": {"name": "conv4_block17_1_conv", "trainable": false, "dtype": "float32", "filters": 128, "kernel_size": [1, 1], "strides": [1, 1], "padding": "valid", "data_format": "channels_last", "dilation_rate": [1, 1], "activation": "linear", "use_bias": false, "kernel_initializer": {"class_name": "GlorotUniform", "config": {"seed": null}}, "bias_initializer": {"class_name": "Zeros", "config": {}}, "kernel_regularizer": null, "bias_regularizer": null, "activity_regularizer": null, "kernel_constraint": null, "bias_constraint": null}, "name": "conv4_block17_1_conv", "inbound_nodes": [[["conv4_block17_0_relu", 0, 0, {}]]]}, {"class_name": "BatchNormalization", "config": {"name": "conv4_block17_1_bn", "trainable": false, "dtype": "float32", "axis": [3], "momentum": 0.99, "epsilon": 1.001e-05, "center": true, "scale": true, "beta_initializer": {"class_name": "Zeros", "config": {}}, "gamma_initializer": {"class_name": "Ones", "config": {}}, "moving_mean_initializer": {"class_name": "Zeros", "config": {}}, "moving_variance_initializer": {"class_name": "Ones", "config": {}}, "beta_regularizer": null, "gamma_regularizer": null, "beta_constraint": null, "gamma_constraint": null}, "name": "conv4_block17_1_bn", "inbound_nodes": [[["conv4_block17_1_conv", 0, 0, {}]]]}, {"class_name": "Activation", "config": {"name": "conv4_block17_1_relu", "trainable": false, "dtype": "float32", "activation": "relu"}, "name": "conv4_block17_1_relu", "inbound_nodes": [[["conv4_block17_1_bn", 0, 0, {}]]]}, {"class_name": "Conv2D", "config": {"name": "conv4_block17_2_conv", "trainable": false, "dtype": "float32", "filters": 32, "kernel_size": [3, 3], "strides": [1, 1], "padding": "same", "data_format": "channels_last", "dilation_rate": [1, 1], "activation": "linear", "use_bias": false, "kernel_initializer": {"class_name": "GlorotUniform", "config": {"seed": null}}, "bias_initializer": {"class_name": "Zeros", "config": {}}, "kernel_regularizer": null, "bias_regularizer": null, "activity_regularizer": null, "kernel_constraint": null, "bias_constraint": null}, "name": "conv4_block17_2_conv", "inbound_nodes": [[["conv4_block17_1_relu", 0, 0, {}]]]}, {"class_name": "Concatenate", "config": {"name": "conv4_block17_concat", "trainable": false, "dtype": "float32", "axis": 3}, "name": "conv4_block17_concat", "inbound_nodes": [[["conv4_block16_concat", 0, 0, {}], ["conv4_block17_2_conv", 0, 0, {}]]]}, {"class_name": "BatchNormalization", "config": {"name": "conv4_block18_0_bn", "trainable": false, "dtype": "float32", "axis": [3], "momentum": 0.99, "epsilon": 1.001e-05, "center": true, "scale": true, "beta_initializer": {"class_name": "Zeros", "config": {}}, "gamma_initializer": {"class_name": "Ones", "config": {}}, "moving_mean_initializer": {"class_name": "Zeros", "config": {}}, "moving_variance_initializer": {"class_name": "Ones", "config": {}}, "beta_regularizer": null, "gamma_regularizer": null, "beta_constraint": null, "gamma_constraint": null}, "name": "conv4_block18_0_bn", "inbound_nodes": [[["conv4_block17_concat", 0, 0, {}]]]}, {"class_name": "Activation", "config": {"name": "conv4_block18_0_relu", "trainable": false, "dtype": "float32", "activation": "relu"}, "name": "conv4_block18_0_relu", "inbound_nodes": [[["conv4_block18_0_bn", 0, 0, {}]]]}, {"class_name": "Conv2D", "config": {"name": "conv4_block18_1_conv", "trainable": false, "dtype": "float32", "filters": 128, "kernel_size": [1, 1], "strides": [1, 1], "padding": "valid", "data_format": "channels_last", "dilation_rate": [1, 1], "activation": "linear", "use_bias": false, "kernel_initializer": {"class_name": "GlorotUniform", "config": {"seed": null}}, "bias_initializer": {"class_name": "Zeros", "config": {}}, "kernel_regularizer": null, "bias_regularizer": null, "activity_regularizer": null, "kernel_constraint": null, "bias_constraint": null}, "name": "conv4_block18_1_conv", "inbound_nodes": [[["conv4_block18_0_relu", 0, 0, {}]]]}, {"class_name": "BatchNormalization", "config": {"name": "conv4_block18_1_bn", "trainable": false, "dtype": "float32", "axis": [3], "momentum": 0.99, "epsilon": 1.001e-05, "center": true, "scale": true, "beta_initializer": {"class_name": "Zeros", "config": {}}, "gamma_initializer": {"class_name": "Ones", "config": {}}, "moving_mean_initializer": {"class_name": "Zeros", "config": {}}, "moving_variance_initializer": {"class_name": "Ones", "config": {}}, "beta_regularizer": null, "gamma_regularizer": null, "beta_constraint": null, "gamma_constraint": null}, "name": "conv4_block18_1_bn", "inbound_nodes": [[["conv4_block18_1_conv", 0, 0, {}]]]}, {"class_name": "Activation", "config": {"name": "conv4_block18_1_relu", "trainable": false, "dtype": "float32", "activation": "relu"}, "name": "conv4_block18_1_relu", "inbound_nodes": [[["conv4_block18_1_bn", 0, 0, {}]]]}, {"class_name": "Conv2D", "config": {"name": "conv4_block18_2_conv", "trainable": false, "dtype": "float32", "filters": 32, "kernel_size": [3, 3], "strides": [1, 1], "padding": "same", "data_format": "channels_last", "dilation_rate": [1, 1], "activation": "linear", "use_bias": false, "kernel_initializer": {"class_name": "GlorotUniform", "config": {"seed": null}}, "bias_initializer": {"class_name": "Zeros", "config": {}}, "kernel_regularizer": null, "bias_regularizer": null, "activity_regularizer": null, "kernel_constraint": null, "bias_constraint": null}, "name": "conv4_block18_2_conv", "inbound_nodes": [[["conv4_block18_1_relu", 0, 0, {}]]]}, {"class_name": "Concatenate", "config": {"name": "conv4_block18_concat", "trainable": false, "dtype": "float32", "axis": 3}, "name": "conv4_block18_concat", "inbound_nodes": [[["conv4_block17_concat", 0, 0, {}], ["conv4_block18_2_conv", 0, 0, {}]]]}, {"class_name": "BatchNormalization", "config": {"name": "conv4_block19_0_bn", "trainable": false, "dtype": "float32", "axis": [3], "momentum": 0.99, "epsilon": 1.001e-05, "center": true, "scale": true, "beta_initializer": {"class_name": "Zeros", "config": {}}, "gamma_initializer": {"class_name": "Ones", "config": {}}, "moving_mean_initializer": {"class_name": "Zeros", "config": {}}, "moving_variance_initializer": {"class_name": "Ones", "config": {}}, "beta_regularizer": null, "gamma_regularizer": null, "beta_constraint": null, "gamma_constraint": null}, "name": "conv4_block19_0_bn", "inbound_nodes": [[["conv4_block18_concat", 0, 0, {}]]]}, {"class_name": "Activation", "config": {"name": "conv4_block19_0_relu", "trainable": false, "dtype": "float32", "activation": "relu"}, "name": "conv4_block19_0_relu", "inbound_nodes": [[["conv4_block19_0_bn", 0, 0, {}]]]}, {"class_name": "Conv2D", "config": {"name": "conv4_block19_1_conv", "trainable": false, "dtype": "float32", "filters": 128, "kernel_size": [1, 1], "strides": [1, 1], "padding": "valid", "data_format": "channels_last", "dilation_rate": [1, 1], "activation": "linear", "use_bias": false, "kernel_initializer": {"class_name": "GlorotUniform", "config": {"seed": null}}, "bias_initializer": {"class_name": "Zeros", "config": {}}, "kernel_regularizer": null, "bias_regularizer": null, "activity_regularizer": null, "kernel_constraint": null, "bias_constraint": null}, "name": "conv4_block19_1_conv", "inbound_nodes": [[["conv4_block19_0_relu", 0, 0, {}]]]}, {"class_name": "BatchNormalization", "config": {"name": "conv4_block19_1_bn", "trainable": false, "dtype": "float32", "axis": [3], "momentum": 0.99, "epsilon": 1.001e-05, "center": true, "scale": true, "beta_initializer": {"class_name": "Zeros", "config": {}}, "gamma_initializer": {"class_name": "Ones", "config": {}}, "moving_mean_initializer": {"class_name": "Zeros", "config": {}}, "moving_variance_initializer": {"class_name": "Ones", "config": {}}, "beta_regularizer": null, "gamma_regularizer": null, "beta_constraint": null, "gamma_constraint": null}, "name": "conv4_block19_1_bn", "inbound_nodes": [[["conv4_block19_1_conv", 0, 0, {}]]]}, {"class_name": "Activation", "config": {"name": "conv4_block19_1_relu", "trainable": false, "dtype": "float32", "activation": "relu"}, "name": "conv4_block19_1_relu", "inbound_nodes": [[["conv4_block19_1_bn", 0, 0, {}]]]}, {"class_name": "Conv2D", "config": {"name": "conv4_block19_2_conv", "trainable": false, "dtype": "float32", "filters": 32, "kernel_size": [3, 3], "strides": [1, 1], "padding": "same", "data_format": "channels_last", "dilation_rate": [1, 1], "activation": "linear", "use_bias": false, "kernel_initializer": {"class_name": "GlorotUniform", "config": {"seed": null}}, "bias_initializer": {"class_name": "Zeros", "config": {}}, "kernel_regularizer": null, "bias_regularizer": null, "activity_regularizer": null, "kernel_constraint": null, "bias_constraint": null}, "name": "conv4_block19_2_conv", "inbound_nodes": [[["conv4_block19_1_relu", 0, 0, {}]]]}, {"class_name": "Concatenate", "config": {"name": "conv4_block19_concat", "trainable": false, "dtype": "float32", "axis": 3}, "name": "conv4_block19_concat", "inbound_nodes": [[["conv4_block18_concat", 0, 0, {}], ["conv4_block19_2_conv", 0, 0, {}]]]}, {"class_name": "BatchNormalization", "config": {"name": "conv4_block20_0_bn", "trainable": false, "dtype": "float32", "axis": [3], "momentum": 0.99, "epsilon": 1.001e-05, "center": true, "scale": true, "beta_initializer": {"class_name": "Zeros", "config": {}}, "gamma_initializer": {"class_name": "Ones", "config": {}}, "moving_mean_initializer": {"class_name": "Zeros", "config": {}}, "moving_variance_initializer": {"class_name": "Ones", "config": {}}, "beta_regularizer": null, "gamma_regularizer": null, "beta_constraint": null, "gamma_constraint": null}, "name": "conv4_block20_0_bn", "inbound_nodes": [[["conv4_block19_concat", 0, 0, {}]]]}, {"class_name": "Activation", "config": {"name": "conv4_block20_0_relu", "trainable": false, "dtype": "float32", "activation": "relu"}, "name": "conv4_block20_0_relu", "inbound_nodes": [[["conv4_block20_0_bn", 0, 0, {}]]]}, {"class_name": "Conv2D", "config": {"name": "conv4_block20_1_conv", "trainable": false, "dtype": "float32", "filters": 128, "kernel_size": [1, 1], "strides": [1, 1], "padding": "valid", "data_format": "channels_last", "dilation_rate": [1, 1], "activation": "linear", "use_bias": false, "kernel_initializer": {"class_name": "GlorotUniform", "config": {"seed": null}}, "bias_initializer": {"class_name": "Zeros", "config": {}}, "kernel_regularizer": null, "bias_regularizer": null, "activity_regularizer": null, "kernel_constraint": null, "bias_constraint": null}, "name": "conv4_block20_1_conv", "inbound_nodes": [[["conv4_block20_0_relu", 0, 0, {}]]]}, {"class_name": "BatchNormalization", "config": {"name": "conv4_block20_1_bn", "trainable": false, "dtype": "float32", "axis": [3], "momentum": 0.99, "epsilon": 1.001e-05, "center": true, "scale": true, "beta_initializer": {"class_name": "Zeros", "config": {}}, "gamma_initializer": {"class_name": "Ones", "config": {}}, "moving_mean_initializer": {"class_name": "Zeros", "config": {}}, "moving_variance_initializer": {"class_name": "Ones", "config": {}}, "beta_regularizer": null, "gamma_regularizer": null, "beta_constraint": null, "gamma_constraint": null}, "name": "conv4_block20_1_bn", "inbound_nodes": [[["conv4_block20_1_conv", 0, 0, {}]]]}, {"class_name": "Activation", "config": {"name": "conv4_block20_1_relu", "trainable": false, "dtype": "float32", "activation": "relu"}, "name": "conv4_block20_1_relu", "inbound_nodes": [[["conv4_block20_1_bn", 0, 0, {}]]]}, {"class_name": "Conv2D", "config": {"name": "conv4_block20_2_conv", "trainable": false, "dtype": "float32", "filters": 32, "kernel_size": [3, 3], "strides": [1, 1], "padding": "same", "data_format": "channels_last", "dilation_rate": [1, 1], "activation": "linear", "use_bias": false, "kernel_initializer": {"class_name": "GlorotUniform", "config": {"seed": null}}, "bias_initializer": {"class_name": "Zeros", "config": {}}, "kernel_regularizer": null, "bias_regularizer": null, "activity_regularizer": null, "kernel_constraint": null, "bias_constraint": null}, "name": "conv4_block20_2_conv", "inbound_nodes": [[["conv4_block20_1_relu", 0, 0, {}]]]}, {"class_name": "Concatenate", "config": {"name": "conv4_block20_concat", "trainable": false, "dtype": "float32", "axis": 3}, "name": "conv4_block20_concat", "inbound_nodes": [[["conv4_block19_concat", 0, 0, {}], ["conv4_block20_2_conv", 0, 0, {}]]]}, {"class_name": "BatchNormalization", "config": {"name": "conv4_block21_0_bn", "trainable": false, "dtype": "float32", "axis": [3], "momentum": 0.99, "epsilon": 1.001e-05, "center": true, "scale": true, "beta_initializer": {"class_name": "Zeros", "config": {}}, "gamma_initializer": {"class_name": "Ones", "config": {}}, "moving_mean_initializer": {"class_name": "Zeros", "config": {}}, "moving_variance_initializer": {"class_name": "Ones", "config": {}}, "beta_regularizer": null, "gamma_regularizer": null, "beta_constraint": null, "gamma_constraint": null}, "name": "conv4_block21_0_bn", "inbound_nodes": [[["conv4_block20_concat", 0, 0, {}]]]}, {"class_name": "Activation", "config": {"name": "conv4_block21_0_relu", "trainable": false, "dtype": "float32", "activation": "relu"}, "name": "conv4_block21_0_relu", "inbound_nodes": [[["conv4_block21_0_bn", 0, 0, {}]]]}, {"class_name": "Conv2D", "config": {"name": "conv4_block21_1_conv", "trainable": false, "dtype": "float32", "filters": 128, "kernel_size": [1, 1], "strides": [1, 1], "padding": "valid", "data_format": "channels_last", "dilation_rate": [1, 1], "activation": "linear", "use_bias": false, "kernel_initializer": {"class_name": "GlorotUniform", "config": {"seed": null}}, "bias_initializer": {"class_name": "Zeros", "config": {}}, "kernel_regularizer": null, "bias_regularizer": null, "activity_regularizer": null, "kernel_constraint": null, "bias_constraint": null}, "name": "conv4_block21_1_conv", "inbound_nodes": [[["conv4_block21_0_relu", 0, 0, {}]]]}, {"class_name": "BatchNormalization", "config": {"name": "conv4_block21_1_bn", "trainable": false, "dtype": "float32", "axis": [3], "momentum": 0.99, "epsilon": 1.001e-05, "center": true, "scale": true, "beta_initializer": {"class_name": "Zeros", "config": {}}, "gamma_initializer": {"class_name": "Ones", "config": {}}, "moving_mean_initializer": {"class_name": "Zeros", "config": {}}, "moving_variance_initializer": {"class_name": "Ones", "config": {}}, "beta_regularizer": null, "gamma_regularizer": null, "beta_constraint": null, "gamma_constraint": null}, "name": "conv4_block21_1_bn", "inbound_nodes": [[["conv4_block21_1_conv", 0, 0, {}]]]}, {"class_name": "Activation", "config": {"name": "conv4_block21_1_relu", "trainable": false, "dtype": "float32", "activation": "relu"}, "name": "conv4_block21_1_relu", "inbound_nodes": [[["conv4_block21_1_bn", 0, 0, {}]]]}, {"class_name": "Conv2D", "config": {"name": "conv4_block21_2_conv", "trainable": false, "dtype": "float32", "filters": 32, "kernel_size": [3, 3], "strides": [1, 1], "padding": "same", "data_format": "channels_last", "dilation_rate": [1, 1], "activation": "linear", "use_bias": false, "kernel_initializer": {"class_name": "GlorotUniform", "config": {"seed": null}}, "bias_initializer": {"class_name": "Zeros", "config": {}}, "kernel_regularizer": null, "bias_regularizer": null, "activity_regularizer": null, "kernel_constraint": null, "bias_constraint": null}, "name": "conv4_block21_2_conv", "inbound_nodes": [[["conv4_block21_1_relu", 0, 0, {}]]]}, {"class_name": "Concatenate", "config": {"name": "conv4_block21_concat", "trainable": false, "dtype": "float32", "axis": 3}, "name": "conv4_block21_concat", "inbound_nodes": [[["conv4_block20_concat", 0, 0, {}], ["conv4_block21_2_conv", 0, 0, {}]]]}, {"class_name": "BatchNormalization", "config": {"name": "conv4_block22_0_bn", "trainable": false, "dtype": "float32", "axis": [3], "momentum": 0.99, "epsilon": 1.001e-05, "center": true, "scale": true, "beta_initializer": {"class_name": "Zeros", "config": {}}, "gamma_initializer": {"class_name": "Ones", "config": {}}, "moving_mean_initializer": {"class_name": "Zeros", "config": {}}, "moving_variance_initializer": {"class_name": "Ones", "config": {}}, "beta_regularizer": null, "gamma_regularizer": null, "beta_constraint": null, "gamma_constraint": null}, "name": "conv4_block22_0_bn", "inbound_nodes": [[["conv4_block21_concat", 0, 0, {}]]]}, {"class_name": "Activation", "config": {"name": "conv4_block22_0_relu", "trainable": false, "dtype": "float32", "activation": "relu"}, "name": "conv4_block22_0_relu", "inbound_nodes": [[["conv4_block22_0_bn", 0, 0, {}]]]}, {"class_name": "Conv2D", "config": {"name": "conv4_block22_1_conv", "trainable": false, "dtype": "float32", "filters": 128, "kernel_size": [1, 1], "strides": [1, 1], "padding": "valid", "data_format": "channels_last", "dilation_rate": [1, 1], "activation": "linear", "use_bias": false, "kernel_initializer": {"class_name": "GlorotUniform", "config": {"seed": null}}, "bias_initializer": {"class_name": "Zeros", "config": {}}, "kernel_regularizer": null, "bias_regularizer": null, "activity_regularizer": null, "kernel_constraint": null, "bias_constraint": null}, "name": "conv4_block22_1_conv", "inbound_nodes": [[["conv4_block22_0_relu", 0, 0, {}]]]}, {"class_name": "BatchNormalization", "config": {"name": "conv4_block22_1_bn", "trainable": false, "dtype": "float32", "axis": [3], "momentum": 0.99, "epsilon": 1.001e-05, "center": true, "scale": true, "beta_initializer": {"class_name": "Zeros", "config": {}}, "gamma_initializer": {"class_name": "Ones", "config": {}}, "moving_mean_initializer": {"class_name": "Zeros", "config": {}}, "moving_variance_initializer": {"class_name": "Ones", "config": {}}, "beta_regularizer": null, "gamma_regularizer": null, "beta_constraint": null, "gamma_constraint": null}, "name": "conv4_block22_1_bn", "inbound_nodes": [[["conv4_block22_1_conv", 0, 0, {}]]]}, {"class_name": "Activation", "config": {"name": "conv4_block22_1_relu", "trainable": false, "dtype": "float32", "activation": "relu"}, "name": "conv4_block22_1_relu", "inbound_nodes": [[["conv4_block22_1_bn", 0, 0, {}]]]}, {"class_name": "Conv2D", "config": {"name": "conv4_block22_2_conv", "trainable": false, "dtype": "float32", "filters": 32, "kernel_size": [3, 3], "strides": [1, 1], "padding": "same", "data_format": "channels_last", "dilation_rate": [1, 1], "activation": "linear", "use_bias": false, "kernel_initializer": {"class_name": "GlorotUniform", "config": {"seed": null}}, "bias_initializer": {"class_name": "Zeros", "config": {}}, "kernel_regularizer": null, "bias_regularizer": null, "activity_regularizer": null, "kernel_constraint": null, "bias_constraint": null}, "name": "conv4_block22_2_conv", "inbound_nodes": [[["conv4_block22_1_relu", 0, 0, {}]]]}, {"class_name": "Concatenate", "config": {"name": "conv4_block22_concat", "trainable": false, "dtype": "float32", "axis": 3}, "name": "conv4_block22_concat", "inbound_nodes": [[["conv4_block21_concat", 0, 0, {}], ["conv4_block22_2_conv", 0, 0, {}]]]}, {"class_name": "BatchNormalization", "config": {"name": "conv4_block23_0_bn", "trainable": false, "dtype": "float32", "axis": [3], "momentum": 0.99, "epsilon": 1.001e-05, "center": true, "scale": true, "beta_initializer": {"class_name": "Zeros", "config": {}}, "gamma_initializer": {"class_name": "Ones", "config": {}}, "moving_mean_initializer": {"class_name": "Zeros", "config": {}}, "moving_variance_initializer": {"class_name": "Ones", "config": {}}, "beta_regularizer": null, "gamma_regularizer": null, "beta_constraint": null, "gamma_constraint": null}, "name": "conv4_block23_0_bn", "inbound_nodes": [[["conv4_block22_concat", 0, 0, {}]]]}, {"class_name": "Activation", "config": {"name": "conv4_block23_0_relu", "trainable": false, "dtype": "float32", "activation": "relu"}, "name": "conv4_block23_0_relu", "inbound_nodes": [[["conv4_block23_0_bn", 0, 0, {}]]]}, {"class_name": "Conv2D", "config": {"name": "conv4_block23_1_conv", "trainable": false, "dtype": "float32", "filters": 128, "kernel_size": [1, 1], "strides": [1, 1], "padding": "valid", "data_format": "channels_last", "dilation_rate": [1, 1], "activation": "linear", "use_bias": false, "kernel_initializer": {"class_name": "GlorotUniform", "config": {"seed": null}}, "bias_initializer": {"class_name": "Zeros", "config": {}}, "kernel_regularizer": null, "bias_regularizer": null, "activity_regularizer": null, "kernel_constraint": null, "bias_constraint": null}, "name": "conv4_block23_1_conv", "inbound_nodes": [[["conv4_block23_0_relu", 0, 0, {}]]]}, {"class_name": "BatchNormalization", "config": {"name": "conv4_block23_1_bn", "trainable": false, "dtype": "float32", "axis": [3], "momentum": 0.99, "epsilon": 1.001e-05, "center": true, "scale": true, "beta_initializer": {"class_name": "Zeros", "config": {}}, "gamma_initializer": {"class_name": "Ones", "config": {}}, "moving_mean_initializer": {"class_name": "Zeros", "config": {}}, "moving_variance_initializer": {"class_name": "Ones", "config": {}}, "beta_regularizer": null, "gamma_regularizer": null, "beta_constraint": null, "gamma_constraint": null}, "name": "conv4_block23_1_bn", "inbound_nodes": [[["conv4_block23_1_conv", 0, 0, {}]]]}, {"class_name": "Activation", "config": {"name": "conv4_block23_1_relu", "trainable": false, "dtype": "float32", "activation": "relu"}, "name": "conv4_block23_1_relu", "inbound_nodes": [[["conv4_block23_1_bn", 0, 0, {}]]]}, {"class_name": "Conv2D", "config": {"name": "conv4_block23_2_conv", "trainable": false, "dtype": "float32", "filters": 32, "kernel_size": [3, 3], "strides": [1, 1], "padding": "same", "data_format": "channels_last", "dilation_rate": [1, 1], "activation": "linear", "use_bias": false, "kernel_initializer": {"class_name": "GlorotUniform", "config": {"seed": null}}, "bias_initializer": {"class_name": "Zeros", "config": {}}, "kernel_regularizer": null, "bias_regularizer": null, "activity_regularizer": null, "kernel_constraint": null, "bias_constraint": null}, "name": "conv4_block23_2_conv", "inbound_nodes": [[["conv4_block23_1_relu", 0, 0, {}]]]}, {"class_name": "Concatenate", "config": {"name": "conv4_block23_concat", "trainable": false, "dtype": "float32", "axis": 3}, "name": "conv4_block23_concat", "inbound_nodes": [[["conv4_block22_concat", 0, 0, {}], ["conv4_block23_2_conv", 0, 0, {}]]]}, {"class_name": "BatchNormalization", "config": {"name": "conv4_block24_0_bn", "trainable": false, "dtype": "float32", "axis": [3], "momentum": 0.99, "epsilon": 1.001e-05, "center": true, "scale": true, "beta_initializer": {"class_name": "Zeros", "config": {}}, "gamma_initializer": {"class_name": "Ones", "config": {}}, "moving_mean_initializer": {"class_name": "Zeros", "config": {}}, "moving_variance_initializer": {"class_name": "Ones", "config": {}}, "beta_regularizer": null, "gamma_regularizer": null, "beta_constraint": null, "gamma_constraint": null}, "name": "conv4_block24_0_bn", "inbound_nodes": [[["conv4_block23_concat", 0, 0, {}]]]}, {"class_name": "Activation", "config": {"name": "conv4_block24_0_relu", "trainable": false, "dtype": "float32", "activation": "relu"}, "name": "conv4_block24_0_relu", "inbound_nodes": [[["conv4_block24_0_bn", 0, 0, {}]]]}, {"class_name": "Conv2D", "config": {"name": "conv4_block24_1_conv", "trainable": false, "dtype": "float32", "filters": 128, "kernel_size": [1, 1], "strides": [1, 1], "padding": "valid", "data_format": "channels_last", "dilation_rate": [1, 1], "activation": "linear", "use_bias": false, "kernel_initializer": {"class_name": "GlorotUniform", "config": {"seed": null}}, "bias_initializer": {"class_name": "Zeros", "config": {}}, "kernel_regularizer": null, "bias_regularizer": null, "activity_regularizer": null, "kernel_constraint": null, "bias_constraint": null}, "name": "conv4_block24_1_conv", "inbound_nodes": [[["conv4_block24_0_relu", 0, 0, {}]]]}, {"class_name": "BatchNormalization", "config": {"name": "conv4_block24_1_bn", "trainable": false, "dtype": "float32", "axis": [3], "momentum": 0.99, "epsilon": 1.001e-05, "center": true, "scale": true, "beta_initializer": {"class_name": "Zeros", "config": {}}, "gamma_initializer": {"class_name": "Ones", "config": {}}, "moving_mean_initializer": {"class_name": "Zeros", "config": {}}, "moving_variance_initializer": {"class_name": "Ones", "config": {}}, "beta_regularizer": null, "gamma_regularizer": null, "beta_constraint": null, "gamma_constraint": null}, "name": "conv4_block24_1_bn", "inbound_nodes": [[["conv4_block24_1_conv", 0, 0, {}]]]}, {"class_name": "Activation", "config": {"name": "conv4_block24_1_relu", "trainable": false, "dtype": "float32", "activation": "relu"}, "name": "conv4_block24_1_relu", "inbound_nodes": [[["conv4_block24_1_bn", 0, 0, {}]]]}, {"class_name": "Conv2D", "config": {"name": "conv4_block24_2_conv", "trainable": false, "dtype": "float32", "filters": 32, "kernel_size": [3, 3], "strides": [1, 1], "padding": "same", "data_format": "channels_last", "dilation_rate": [1, 1], "activation": "linear", "use_bias": false, "kernel_initializer": {"class_name": "GlorotUniform", "config": {"seed": null}}, "bias_initializer": {"class_name": "Zeros", "config": {}}, "kernel_regularizer": null, "bias_regularizer": null, "activity_regularizer": null, "kernel_constraint": null, "bias_constraint": null}, "name": "conv4_block24_2_conv", "inbound_nodes": [[["conv4_block24_1_relu", 0, 0, {}]]]}, {"class_name": "Concatenate", "config": {"name": "conv4_block24_concat", "trainable": false, "dtype": "float32", "axis": 3}, "name": "conv4_block24_concat", "inbound_nodes": [[["conv4_block23_concat", 0, 0, {}], ["conv4_block24_2_conv", 0, 0, {}]]]}, {"class_name": "BatchNormalization", "config": {"name": "pool4_bn", "trainable": false, "dtype": "float32", "axis": [3], "momentum": 0.99, "epsilon": 1.001e-05, "center": true, "scale": true, "beta_initializer": {"class_name": "Zeros", "config": {}}, "gamma_initializer": {"class_name": "Ones", "config": {}}, "moving_mean_initializer": {"class_name": "Zeros", "config": {}}, "moving_variance_initializer": {"class_name": "Ones", "config": {}}, "beta_regularizer": null, "gamma_regularizer": null, "beta_constraint": null, "gamma_constraint": null}, "name": "pool4_bn", "inbound_nodes": [[["conv4_block24_concat", 0, 0, {}]]]}, {"class_name": "Activation", "config": {"name": "pool4_relu", "trainable": false, "dtype": "float32", "activation": "relu"}, "name": "pool4_relu", "inbound_nodes": [[["pool4_bn", 0, 0, {}]]]}, {"class_name": "Conv2D", "config": {"name": "pool4_conv", "trainable": false, "dtype": "float32", "filters": 512, "kernel_size": [1, 1], "strides": [1, 1], "padding": "valid", "data_format": "channels_last", "dilation_rate": [1, 1], "activation": "linear", "use_bias": false, "kernel_initializer": {"class_name": "GlorotUniform", "config": {"seed": null}}, "bias_initializer": {"class_name": "Zeros", "config": {}}, "kernel_regularizer": null, "bias_regularizer": null, "activity_regularizer": null, "kernel_constraint": null, "bias_constraint": null}, "name": "pool4_conv", "inbound_nodes": [[["pool4_relu", 0, 0, {}]]]}, {"class_name": "AveragePooling2D", "config": {"name": "pool4_pool", "trainable": false, "dtype": "float32", "pool_size": [2, 2], "padding": "valid", "strides": [2, 2], "data_format": "channels_last"}, "name": "pool4_pool", "inbound_nodes": [[["pool4_conv", 0, 0, {}]]]}, {"class_name": "BatchNormalization", "config": {"name": "conv5_block1_0_bn", "trainable": false, "dtype": "float32", "axis": [3], "momentum": 0.99, "epsilon": 1.001e-05, "center": true, "scale": true, "beta_initializer": {"class_name": "Zeros", "config": {}}, "gamma_initializer": {"class_name": "Ones", "config": {}}, "moving_mean_initializer": {"class_name": "Zeros", "config": {}}, "moving_variance_initializer": {"class_name": "Ones", "config": {}}, "beta_regularizer": null, "gamma_regularizer": null, "beta_constraint": null, "gamma_constraint": null}, "name": "conv5_block1_0_bn", "inbound_nodes": [[["pool4_pool", 0, 0, {}]]]}, {"class_name": "Activation", "config": {"name": "conv5_block1_0_relu", "trainable": false, "dtype": "float32", "activation": "relu"}, "name": "conv5_block1_0_relu", "inbound_nodes": [[["conv5_block1_0_bn", 0, 0, {}]]]}, {"class_name": "Conv2D", "config": {"name": "conv5_block1_1_conv", "trainable": false, "dtype": "float32", "filters": 128, "kernel_size": [1, 1], "strides": [1, 1], "padding": "valid", "data_format": "channels_last", "dilation_rate": [1, 1], "activation": "linear", "use_bias": false, "kernel_initializer": {"class_name": "GlorotUniform", "config": {"seed": null}}, "bias_initializer": {"class_name": "Zeros", "config": {}}, "kernel_regularizer": null, "bias_regularizer": null, "activity_regularizer": null, "kernel_constraint": null, "bias_constraint": null}, "name": "conv5_block1_1_conv", "inbound_nodes": [[["conv5_block1_0_relu", 0, 0, {}]]]}, {"class_name": "BatchNormalization", "config": {"name": "conv5_block1_1_bn", "trainable": false, "dtype": "float32", "axis": [3], "momentum": 0.99, "epsilon": 1.001e-05, "center": true, "scale": true, "beta_initializer": {"class_name": "Zeros", "config": {}}, "gamma_initializer": {"class_name": "Ones", "config": {}}, "moving_mean_initializer": {"class_name": "Zeros", "config": {}}, "moving_variance_initializer": {"class_name": "Ones", "config": {}}, "beta_regularizer": null, "gamma_regularizer": null, "beta_constraint": null, "gamma_constraint": null}, "name": "conv5_block1_1_bn", "inbound_nodes": [[["conv5_block1_1_conv", 0, 0, {}]]]}, {"class_name": "Activation", "config": {"name": "conv5_block1_1_relu", "trainable": false, "dtype": "float32", "activation": "relu"}, "name": "conv5_block1_1_relu", "inbound_nodes": [[["conv5_block1_1_bn", 0, 0, {}]]]}, {"class_name": "Conv2D", "config": {"name": "conv5_block1_2_conv", "trainable": false, "dtype": "float32", "filters": 32, "kernel_size": [3, 3], "strides": [1, 1], "padding": "same", "data_format": "channels_last", "dilation_rate": [1, 1], "activation": "linear", "use_bias": false, "kernel_initializer": {"class_name": "GlorotUniform", "config": {"seed": null}}, "bias_initializer": {"class_name": "Zeros", "config": {}}, "kernel_regularizer": null, "bias_regularizer": null, "activity_regularizer": null, "kernel_constraint": null, "bias_constraint": null}, "name": "conv5_block1_2_conv", "inbound_nodes": [[["conv5_block1_1_relu", 0, 0, {}]]]}, {"class_name": "Concatenate", "config": {"name": "conv5_block1_concat", "trainable": false, "dtype": "float32", "axis": 3}, "name": "conv5_block1_concat", "inbound_nodes": [[["pool4_pool", 0, 0, {}], ["conv5_block1_2_conv", 0, 0, {}]]]}, {"class_name": "BatchNormalization", "config": {"name": "conv5_block2_0_bn", "trainable": false, "dtype": "float32", "axis": [3], "momentum": 0.99, "epsilon": 1.001e-05, "center": true, "scale": true, "beta_initializer": {"class_name": "Zeros", "config": {}}, "gamma_initializer": {"class_name": "Ones", "config": {}}, "moving_mean_initializer": {"class_name": "Zeros", "config": {}}, "moving_variance_initializer": {"class_name": "Ones", "config": {}}, "beta_regularizer": null, "gamma_regularizer": null, "beta_constraint": null, "gamma_constraint": null}, "name": "conv5_block2_0_bn", "inbound_nodes": [[["conv5_block1_concat", 0, 0, {}]]]}, {"class_name": "Activation", "config": {"name": "conv5_block2_0_relu", "trainable": false, "dtype": "float32", "activation": "relu"}, "name": "conv5_block2_0_relu", "inbound_nodes": [[["conv5_block2_0_bn", 0, 0, {}]]]}, {"class_name": "Conv2D", "config": {"name": "conv5_block2_1_conv", "trainable": false, "dtype": "float32", "filters": 128, "kernel_size": [1, 1], "strides": [1, 1], "padding": "valid", "data_format": "channe…
ype": "uint8", "min": -0.10654324120750615, "scale": 0.0007776878920255923, "original_dtype": "float32"}}, {"name": "conv4_block3_1_bn/moving_variance", "shape": [128], "dtype": "float32", "quantization": {"dtype": "uint8", "min": 0.0008811653824523091, "scale": 1.726528474440177e-05, "original_dtype": "float32"}}, {"name": "conv4_block3_1_conv/kernel", "shape": [1, 1, 320, 128], "dtype": "float32", "quantization": {"dtype": "uint8", "min": -0.310970970696094, "scale": 0.0026807842301387413, "original_dtype": "float32"}}, {"name": "conv4_block3_2_conv/kernel", "shape": [3, 3, 128, 32], "dtype": "float32", "quantization": {"dtype": "uint8", "min": -0.2876173320938559, "scale": 0.0020254741696750416, "original_dtype": "float32"}}, {"name": "conv4_block4_0_bn/gamma", "shape": [352], "dtype": "float32", "quantization": {"dtype": "uint8", "min": 1.9768171100054133e-08, "scale": 0.0009191907897521756, "original_dtype": "float32"}}, {"name": "conv4_block4_0_bn/beta", "shape": [352], "dtype": "float32", "quantization": {"dtype": "uint8", "min": -0.150301596697639, "scale": 0.0018787699587204877, "original_dtype": "float32"}}, {"name": "conv4_block4_0_bn/moving_mean", "shape": [352], "dtype": "float32", "quantization": {"dtype": "uint8", "min": -1.0329242588258258, "scale": 0.005038654921101589, "original_dtype": "float32"}}, {"name": "conv4_block4_0_bn/moving_variance", "shape": [352], "dtype": "float32", "quantization": {"dtype": "uint8", "min": 0.006304407026618719, "scale": 0.00021914373170219215, "original_dtype": "float32"}}, {"name": "conv4_block4_1_bn/gamma", "shape": [128], "dtype": "float32", "quantization": {"dtype": "uint8", "min": 0.09427767992019653, "scale": 0.0016257601625779097, "original_dtype": "float32"}}, {"name": "conv4_block4_1_bn/beta", "shape": [128], "dtype": "float32", "quantization": {"dtype": "uint8", "min": -0.4269238796304254, "scale": 0.002556430416948655, "original_dtype": "float32"}}, {"name": "conv4_block4_1_bn/moving_mean", "shape": [128], "dtype": "float32", "quantization": {"dtype": "uint8", "min": -0.12322586757295272, "scale": 0.0008929410693692226, "original_dtype": "float32"}}, {"name": "conv4_block4_1_bn/moving_variance", "shape": [128], "dtype": "float32", "quantization": {"dtype": "uint8", "min": 0.0008841441594995558, "scale": 3.707586563941018e-05, "original_dtype": "float32"}}, {"name": "conv4_block4_1_conv/kernel", "shape": [1, 1, 352, 128], "dtype": "float32", "quantization": {"dtype": "uint8", "min": -0.2859847805079292, "scale": 0.0021342147799099194, "original_dtype": "float32"}}, {"name": "conv4_block4_2_conv/kernel", "shape": [3, 3, 128, 32], "dtype": "float32", "quantization": {"dtype": "uint8", "min": -0.17757161873228408, "scale": 0.002306124918601092, "original_dtype": "float32"}}, {"name": "conv4_block5_0_bn/gamma", "shape": [384], "dtype": "float32", "quantization": {"dtype": "uint8", "min": -0.0, "scale": 0.0008461687082565143, "original_dtype": "float32"}}, {"name": "conv4_block5_0_bn/beta", "shape": [384], "dtype": "float32", "quantization": {"dtype": "uint8", "min": -0.10582281076440625, "scale": 0.0013395292501823576, "original_dtype": "float32"}}, {"name": "conv4_block5_0_bn/moving_mean", "shape": [384], "dtype": "float32", "quantization": {"dtype": "uint8", "min": -1.0329242588258258, "scale": 0.005038654921101589, "original_dtype": "float32"}}, {"name": "conv4_block5_0_bn/moving_variance", "shape": [384], "dtype": "float32", "quantization": {"dtype": "uint8", "min": 0.006304407026618719, "scale": 0.00021914373170219215, "original_dtype": "float32"}}, {"name": "conv4_block5_1_bn/gamma", "shape": [128], "dtype": "float32", "quantization": {"dtype": "uint8", "min": 0.08376720547676086, "scale": 0.001388081148558972, "original_dtype": "float32"}}, {"name": "conv4_block5_1_bn/beta", "shape": [128], "dtype": "float32", "quantization": {"dtype": "uint8", "min": -0.32987656645915087, "scale": 0.0015414792825193967, "original_dtype": "float32"}}, {"name": "conv4_block5_1_bn/moving_mean", "shape": [128], "dtype": "float32", "quantization": {"dtype": "uint8", "min": -0.15627382894357045, "scale": 0.0011406848827997843, "original_dtype": "float32"}}, {"name": "conv4_block5_1_bn/moving_variance", "shape": [128], "dtype": "float32", "quantization": {"dtype": "uint8", "min": 0.0007453133002854884, "scale": 2.3404336945318125e-05, "original_dtype": "float32"}}, {"name": "conv4_block5_1_conv/kernel", "shape": [1, 1, 384, 128], "dtype": "float32", "quantization": {"dtype": "uint8", "min": -0.25076454667484055, "scale": 0.002143286723716586, "original_dtype": "float32"}}, {"name": "conv4_block5_2_conv/kernel", "shape": [3, 3, 128, 32], "dtype": "float32", "quantization": {"dtype": "uint8", "min": -0.17050517061177423, "scale": 0.002079331348924076, "original_dtype": "float32"}}, {"name": "conv4_block6_0_bn/gamma", "shape": [416], "dtype": "float32", "quantization": {"dtype": "uint8", "min": 1.6593955365351576e-07, "scale": 0.0008999581350990991, "original_dtype": "float32"}}, {"name": "conv4_block6_0_bn/beta", "shape": [416], "dtype": "float32", "quantization": {"dtype": "uint8", "min": -0.10979727094664295, "scale": 0.0011806158166305692, "original_dtype": "float32"}}, {"name": "conv4_block6_0_bn/moving_mean", "shape": [416], "dtype": "float32", "quantization": {"dtype": "uint8", "min": -1.0329242588258258, "scale": 0.005038654921101589, "original_dtype": "float32"}}, {"name": "conv4_block6_0_bn/moving_variance", "shape": [416], "dtype": "float32", "quantization": {"dtype": "uint8", "min": 0.006304407026618719, "scale": 0.00021914373170219215, "original_dtype": "float32"}}, {"name": "conv4_block6_1_bn/gamma", "shape": [128], "dtype": "float32", "quantization": {"dtype": "uint8", "min": 0.10654869675636292, "scale": 0.0006047594781015433, "original_dtype": "float32"}}, {"name": "conv4_block6_1_bn/beta", "shape": [128], "dtype": "float32", "quantization": {"dtype": "uint8", "min": -0.25020461003569994, "scale": 0.001352457351544324, "original_dtype": "float32"}}, {"name": "conv4_block6_1_bn/moving_mean", "shape": [128], "dtype": "float32", "quantization": {"dtype": "uint8", "min": -0.12574706536297706, "scale": 0.0007810376730619693, "original_dtype": "float32"}}, {"name": "conv4_block6_1_bn/moving_variance", "shape": [128], "dtype": "float32", "quantization": {"dtype": "uint8", "min": 0.0009894249960780144, "scale": 2.6961350265671226e-05, "original_dtype": "float32"}}, {"name": "conv4_block6_1_conv/kernel", "shape": [1, 1, 416, 128], "dtype": "float32", "quantization": {"dtype": "uint8", "min": -0.27123261146685657, "scale": 0.002039342943359824, "original_dtype": "float32"}}, {"name": "conv4_block6_2_conv/kernel", "shape": [3, 3, 128, 32], "dtype": "float32", "quantization": {"dtype": "uint8", "min": -0.17953641046495997, "scale": 0.0016174451393239637, "original_dtype": "float32"}}, {"name": "conv4_block7_0_bn/gamma", "shape": [448], "dtype": "float32", "quantization": {"dtype": "uint8", "min": -0.0, "scale": 0.0006990277974111057, "original_dtype": "float32"}}, {"name": "conv4_block7_0_bn/beta", "shape": [448], "dtype": "float32", "quantization": {"dtype": "uint8", "min": -0.08458145371839113, "scale": 0.0013012531341290942, "original_dtype": "float32"}}, {"name": "conv4_block7_0_bn/moving_mean", "shape": [448], "dtype": "float32", "quantization": {"dtype": "uint8", "min": -1.0295994411496554, "scale": 0.00517386653844048, "original_dtype": "float32"}}, {"name": "conv4_block7_0_bn/moving_variance", "shape": [448], "dtype": "float32", "quantization": {"dtype": "uint8", "min": 0.006304407026618719, "scale": 0.00021914373170219215, "original_dtype": "float32"}}, {"name": "conv4_block7_1_bn/gamma", "shape": [128], "dtype": "float32", "quantization": {"dtype": "uint8", "min": 0.08910597860813141, "scale": 0.0006090823926177679, "original_dtype": "float32"}}, {"name": "conv4_block7_1_bn/beta", "shape": [128], "dtype": "float32", "quantization": {"dtype": "uint8", "min": -0.34796996958115517, "scale": 0.0020230812184950883, "original_dtype": "float32"}}, {"name": "conv4_block7_1_bn/moving_mean", "shape": [128], "dtype": "float32", "quantization": {"dtype": "uint8", "min": -0.11697498235632392, "scale": 0.0007450635818874135, "original_dtype": "float32"}}, {"name": "conv4_block7_1_bn/moving_variance", "shape": [128], "dtype": "float32", "quantization": {"dtype": "uint8", "min": 0.0008101421408355236, "scale": 2.3957223211433374e-05, "original_dtype": "float32"}}, {"name": "conv4_block7_1_conv/kernel", "shape": [1, 1, 448, 128], "dtype": "float32", "quantization": {"dtype": "uint8", "min": -0.2797900031594669, "scale": 0.0022563709932215074, "original_dtype": "float32"}}, {"name": "conv4_block7_2_conv/kernel", "shape": [3, 3, 128, 32], "dtype": "float32", "quantization": {"dtype": "uint8", "min": -0.14469973456625845, "scale": 0.0014048517919054218, "original_dtype": "float32"}}, {"name": "conv4_block8_0_bn/gamma", "shape": [480], "dtype": "float32", "quantization": {"dtype": "uint8", "min": 6.035460131670334e-08, "scale": 0.0007376170012104318, "original_dtype": "float32"}}, {"name": "conv4_block8_0_bn/beta", "shape": [480], "dtype": "float32", "quantization": {"dtype": "uint8", "min": -0.12723455826441446, "scale": 0.0010968496402104695, "original_dtype": "float32"}}, {"name": "conv4_block8_0_bn/moving_mean", "shape": [480], "dtype": "float32", "quantization": {"dtype": "uint8", "min": -1.0295994411496554, "scale": 0.00517386653844048, "original_dtype": "float32"}}, {"name": "conv4_block8_0_bn/moving_variance", "shape": [480], "dtype": "float32", "quantization": {"dtype": "uint8", "min": 0.006073863711208105, "scale": 0.00022004782313517495, "original_dtype": "float32"}}, {"name": "conv4_block8_1_bn/gamma", "shape": [128], "dtype": "float32", "quantization": {"dtype": "uint8", "min": 0.09104099869728088, "scale": 0.0013523804206474154, "original_dtype": "float32"}}, {"name": "conv4_block8_1_bn/beta", "shape": [128], "dtype": "float32", "quantization": {"dtype": "uint8", "min": -0.5365012956600563, "scale": 0.002273310574830747, "original_dtype": "float32"}}, {"name": "conv4_block8_1_bn/moving_mean", "shape": [128], "dtype": "float32", "quantization": {"dtype": "uint8", "min": -0.09528486693606657, "scale": 0.000631025608848123, "original_dtype": "float32"}}, {"name": "conv4_block8_1_bn/moving_variance", "shape": [128], "dtype": "float32", "quantization": {"dtype": "uint8", "min": 0.0012639559572562575, "scale": 2.7453879752725946e-05, "original_dtype": "float32"}}, {"name": "conv4_block8_1_conv/kernel", "shape": [1, 1, 480, 128], "dtype": "float32", "quantization": {"dtype": "uint8", "min": -0.21540827026554182, "scale": 0.0015386305018967273, "original_dtype": "float32"}}, {"name": "conv4_block8_2_conv/kernel", "shape": [3, 3, 128, 32], "dtype": "float32", "quantization": {"dtype": "uint8", "min": -0.16756857405690584, "scale": 0.0017638797269147984, "original_dtype": "float32"}}, {"name": "conv4_block9_0_bn/gamma", "shape": [512], "dtype": "float32", "quantization": {"dtype": "uint8", "min": 1.0156245622283677e-08, "scale": 0.001068602783915219, "original_dtype": "float32"}}, {"name": "conv4_block9_0_bn/beta", "shape": [512], "dtype": "float32", "quantization": {"dtype": "uint8", "min": -0.1943208140485427, "scale": 0.0015798440166548188, "original_dtype": "float32"}}, {"name": "conv4_block9_0_bn/moving_mean", "shape": [512], "dtype": "float32", "quantization": {"dtype": "uint8", "min": -1.0295994411496554, "scale": 0.00517386653844048, "original_dtype": "float32"}}, {"name": "conv4_block9_0_bn/moving_variance", "shape": [512], "dtype": "float32", "quantization": {"dtype": "uint8", "min": 0.0046181646175682545, "scale": 0.00022575644703180182, "original_dtype": "float32"}}, {"name": "conv4_block9_1_bn/gamma", "shape": [128], "dtype": "float32", "quantization": {"dtype": "uint8", "min": 0.0848626047372818, "scale": 0.0013493058143877515, "original_dtype": "float32"}}, {"name": "conv4_block9_1_bn/beta", "shape": [128], "dtype": "float32", "quantization": {"dtype": "uint8", "min": -0.2950705347692265, "scale": 0.0014902552261072046, "original_dtype": "float32"}}, {"name": "conv4_block9_1_bn/moving_mean", "shape": [128], "dtype": "float32", "quantization": {"dtype": "uint8", "min": -0.09368852102289013, "scale": 0.0006461277311923457, "original_dtype": "float32"}}, {"name": "conv4_block9_1_bn/moving_variance", "shape": [128], "dtype": "float32", "quantization": {"dtype": "uint8", "min": 0.0009420833084732294, "scale": 6.025586843344511e-05, "original_dtype": "float32"}}, {"name": "conv4_block9_1_conv/kernel", "shape": [1, 1, 512, 128], "dtype": "float32", "quantization": {"dtype": "uint8", "min": -0.32892255876578536, "scale": 0.0024546459609386968, "original_dtype": "float32"}}, {"name": "conv4_block9_2_conv/kernel", "shape": [3, 3, 128, 32], "dtype": "float32", "quantization": {"dtype": "uint8", "min": -0.18491564883905298, "scale": 0.0023707134466545254, "original_dtype": "float32"}}, {"name": "conv5_block10_0_bn/gamma", "shape": [800], "dtype": "float32", "quantization": {"dtype": "uint8", "min": -0.0, "scale": 0.0006891959191610415, "original_dtype": "float32"}}, {"name": "conv5_block10_0_bn/beta", "shape": [800], "dtype": "float32", "quantization": {"dtype": "uint8", "min": -0.12671121259530385, "scale": 0.0010648001058428894, "original_dtype": "float32"}}, {"name": "conv5_block10_0_bn/moving_mean", "shape": [800], "dtype": "float32", "quantization": {"dtype": "uint8", "min": -0.16084318710308448, "scale": 0.0016930861800324682, "original_dtype": "float32"}}, {"name": "conv5_block10_0_bn/moving_variance", "shape": [800], "dtype": "float32", "quantization": {"dtype": "uint8", "min": 0.0005218749865889549, "scale": 0.0001512758032071824, "original_dtype": "float32"}}, {"name": "conv5_block10_1_bn/gamma", "shape": [128], "dtype": "float32", "quantization": {"dtype": "uint8", "min": 0.12922103703022003, "scale": 0.00033919507381962796, "original_dtype": "float32"}}, {"name": "conv5_block10_1_bn/beta", "shape": [128], "dtype": "float32", "quantization": {"dtype": "uint8", "min": -0.3490292429924011, "scale": 0.0009091835688142216, "original_dtype": "float32"}}, {"name": "conv5_block10_1_bn/moving_mean", "shape": [128], "dtype": "float32", "quantization": {"dtype": "uint8", "min": -0.06378630369025118, "scale": 0.0003096422509235494, "original_dtype": "float32"}}, {"name": "conv5_block10_1_bn/moving_variance", "shape": [128], "dtype": "float32", "quantization": {"dtype": "uint8", "min": 0.0009084546472877264, "scale": 1.1193185277721462e-05, "original_dtype": "float32"}}, {"name": "conv5_block10_1_conv/kernel", "shape": [1, 1, 800, 128], "dtype": "float32", "quantization": {"dtype": "uint8", "min": -0.1284731902328192, "scale": 0.0010360741147808, "original_dtype": "float32"}}, {"name": "conv5_block10_2_conv/kernel", "shape": [3, 3, 128, 32], "dtype": "float32", "quantization": {"dtype": "uint8", "min": -0.046502731886564515, "scale": 0.0008455042161193548, "original_dtype": "float32"}}, {"name": "conv5_block11_0_bn/gamma", "shape": [832], "dtype": "float32", "quantization": {"dtype": "uint8", "min": -0.0, "scale": 0.000731344978660619, "original_dtype": "float32"}}, {"name": "conv5_block11_0_bn/beta", "shape": [832], "dtype": "float32", "quantization": {"dtype": "uint8", "min": -0.16411789950786854, "scale": 0.0010453369395405638, "original_dtype": "float32"}}, {"name": "conv5_block11_0_bn/moving_mean", "shape": [832], "dtype": "float32", "quantization": {"dtype": "uint8", "min": -0.16084318710308448, "scale": 0.0016930861800324682, "original_dtype": "float32"}}, {"name": "conv5_block11_0_bn/moving_variance", "shape": [832], "dtype": "float32", "quantization": {"dtype": "uint8", "min": 0.0005218749865889549, "scale": 0.0001512758032071824, "original_dtype": "float32"}}, {"name": "conv5_block11_1_bn/gamma", "shape": [128], "dtype": "float32", "quantization": {"dtype": "uint8", "min": 0.11329799145460129, "scale": 0.0005300999564283034, "original_dtype": "float32"}}, {"name": "conv5_block11_1_bn/beta", "shape": [128], "dtype": "float32", "quantization": {"dtype": "uint8", "min": -0.4521786570549011, "scale": 0.0014329115549723307, "original_dtype": "float32"}}, {"name": "conv5_block11_1_bn/moving_mean", "shape": [128], "dtype": "float32", "quantization": {"dtype": "uint8", "min": -0.07159907589940465, "scale": 0.00032545034499729383, "original_dtype": "float32"}}, {"name": "conv5_block11_1_bn/moving_variance", "shape": [128], "dtype": "float32", "quantization": {"dtype": "uint8", "min": 0.0008905533468350768, "scale": 9.50014081728809e-06, "original_dtype": "float32"}}, {"name": "conv5_block11_1_conv/kernel", "shape": [1, 1, 832, 128], "dtype": "float32", "quantization": {"dtype": "uint8", "min": -0.11556320809850505, "scale": 0.0009472394106434841, "original_dtype": "float32"}}, {"name": "conv5_block11_2_conv/kernel", "shape": [3, 3, 128, 32], "dtype": "float32", "quantization": {"dtype": "uint8", "min": -0.04022414903430378, "scale": 0.0007448916487834033, "original_dtype": "float32"}}, {"name": "conv5_block12_0_bn/gamma", "shape": [864], "dtype": "float32", "quantization": {"dtype": "uint8", "min": -0.08431873751037261, "scale": 0.0010409720680292914, "original_dtype": "float32"}}, {"name": "conv5_block12_0_bn/beta", "shape": [864], "dtype": "float32", "quantization": {"dtype": "uint8", "min": -0.1619759754222982, "scale": 0.0011998220401651719, "original_dtype": "float32"}}, {"name": "conv5_block12_0_bn/moving_mean", "shape": [864], "dtype": "float32", "quantization": {"dtype": "uint8", "min": -0.16084318710308448, "scale": 0.0016930861800324682, "original_dtype": "float32"}}, {"name": "conv5_block12_0_bn/moving_variance", "shape": [864], "dtype": "float32", "quantization": {"dtype": "uint8", "min": 0.0005218749865889549, "scale": 0.0001512758032071824, "original_dtype": "float32"}}, {"name": "conv5_block12_1_bn/gamma", "shape": [128], "dtype": "float32", "quantization": {"dtype": "uint8", "min": 0.10494617372751236, "scale": 0.0004427003217678444, "original_dtype": "float32"}}, {"name": "conv5_block12_1_bn/beta", "shape": [128], "dtype": "float32", "quantization": {"dtype": "uint8", "min": -0.3815518617630005, "scale": 0.0012929824345252092, "original_dtype": "float32"}}, {"name": "conv5_block12_1_bn/moving_mean", "shape": [128], "dtype": "float32", "quantization": {"dtype": "uint8", "min": -0.05424859455841429, "scale": 0.00028108080082079944, "original_dtype": "float32"}}, {"name": "conv5_block12_1_bn/moving_variance", "shape": [128], "dtype": "float32", "quantization": {"dtype": "uint8", "min": 0.0009200502536259592, "scale": 1.0747890052038665e-05, "original_dtype": "float32"}}, {"name": "conv5_block12_1_conv/kernel", "shape": [1, 1, 864, 128], "dtype": "float32", "quantization": {"dtype": "uint8", "min": -0.12212451188003316, "scale": 0.0010712676480704663, "original_dtype": "float32"}}, {"name": "conv5_block12_2_conv/kernel", "shape": [3, 3, 128, 32], "dtype": "float32", "quantization": {"dtype": "uint8", "min": -0.05182129337507135, "scale": 0.0008495293995913337, "original_dtype": "float32"}}, {"name": "conv5_block13_0_bn/gamma", "shape": [896], "dtype": "float32", "quantization": {"dtype": "uint8", "min": -0.0, "scale": 0.0006312560671301303, "original_dtype": "float32"}}, {"name": "conv5_block13_0_bn/beta", "shape": [896], "dtype": "float32", "quantization": {"dtype": "uint8", "min": -0.12235528961116193, "scale": 0.0009411945354704764, "original_dtype": "float32"}}, {"name": "conv5_block13_0_bn/moving_mean", "shape": [896], "dtype": "float32", "quantization": {"dtype": "uint8", "min": -0.16084318710308448, "scale": 0.0016930861800324682, "original_dtype": "float32"}}, {"name": "conv5_block13_0_bn/moving_variance", "shape": [896], "dtype": "float32", "quantization": {"dtype": "uint8", "min": 0.0005218749865889549, "scale": 0.0001512758032071824, "original_dtype": "float32"}}, {"name": "conv5_block13_1_bn/gamma", "shape": [128], "dtype": "float32", "quantization": {"dtype": "uint8", "min": 0.07107654958963394, "scale": 0.0006460492225254283, "original_dtype": "float32"}}, {"name": "conv5_block13_1_bn/beta", "shape": [128], "dtype": "float32", "quantization": {"dtype": "uint8", "min": -0.35755934797811745, "scale": 0.001413278055249476, "original_dtype": "float32"}}, {"name": "conv5_block13_1_bn/moving_mean", "shape": [128], "dtype": "float32", "quantization": {"dtype": "uint8", "min": -0.07263302814726737, "scale": 0.00039474471819167046, "original_dtype": "float32"}}, {"name": "conv5_block13_1_bn/moving_variance", "shape": [128], "dtype": "float32", "quantization": {"dtype": "uint8", "min": 0.001000615768134594, "scale": 1.0370534351643393e-05, "original_dtype": "float32"}}, {"name": "conv5_block13_1_conv/kernel", "shape": [1, 1, 896, 128], "dtype": "float32", "quantization": {"dtype": "uint8", "min": -0.12159992316189935, "scale": 0.001013332693015828, "original_dtype": "float32"}}, {"name": "conv5_block13_2_conv/kernel", "shape": [3, 3, 128, 32], "dtype": "float32", "quantization": {"dtype": "uint8", "min": -0.05381301568419325, "scale": 0.0008679518658740847, "original_dtype": "float32"}}, {"name": "conv5_block14_0_bn/gamma", "shape": [928], "dtype": "float32", "quantization": {"dtype": "uint8", "min": -0.0, "scale": 0.0006236677986510353, "original_dtype": "float32"}}, {"name": "conv5_block14_0_bn/beta", "shape": [928], "dtype": "float32", "quantization": {"dtype": "uint8", "min": -0.12467808922131857, "scale": 0.0009517411390940349, "original_dtype": "float32"}}, {"name": "conv5_block14_0_bn/moving_mean", "shape": [928], "dtype": "float32", "quantization": {"dtype": "uint8", "min": -0.16084318710308448, "scale": 0.0016930861800324682, "original_dtype": "float32"}}, {"name": "conv5_block14_0_bn/moving_variance", "shape": [928], "dtype": "float32", "quantization": {"dtype": "uint8", "min": 0.0005218749865889549, "scale": 0.0001512758032071824, "original_dtype": "float32"}}, {"name": "conv5_block14_1_bn/gamma", "shape": [128], "dtype": "float32", "quantization": {"dtype": "uint8", "min": 0.11216183006763458, "scale": 0.0003911269061705645, "original_dtype": "float32"}}, {"name": "conv5_block14_1_bn/beta", "shape": [128], "dtype": "float32", "quantization": {"dtype": "uint8", "min": -0.3330755829811096, "scale": 0.0010247045872258205, "original_dtype": "float32"}}, {"name": "conv5_block14_1_bn/moving_mean", "shape": [128], "dtype": "float32", "quantization": {"dtype": "uint8", "min": -0.058540944608987545, "scale": 0.0003851377934801812, "original_dtype": "float32"}}, {"name": "conv5_block14_1_bn/moving_variance", "shape": [128], "dtype": "float32", "quantization": {"dtype": "uint8", "min": 0.0008262956980615854, "scale": 1.068496802712188e-05, "original_dtype": "float32"}}, {"name": "conv5_block14_1_conv/kernel", "shape": [1, 1, 928, 128], "dtype": "float32", "quantization": {"dtype": "uint8", "min": -0.16075301117756785, "scale": 0.001373957360492033, "original_dtype": "float32"}}, {"name": "conv5_block14_2_conv/kernel", "shape": [3, 3, 128, 32], "dtype": "float32", "quantization": {"dtype": "uint8", "min": -0.041992835320678414, "scale": 0.00079231764755997, "original_dtype": "float32"}}, {"name": "conv5_block15_0_bn/gamma", "shape": [960], "dtype": "float32", "quantization": {"dtype": "uint8", "min": -0.0, "scale": 0.0007094955268115098, "original_dtype": "float32"}}, {"name": "conv5_block15_0_bn/beta", "shape": [960], "dtype": "float32", "quantization": {"dtype": "uint8", "min": -0.1853630384978126, "scale": 0.0012357535899854173, "original_dtype": "float32"}}, {"name": "conv5_block15_0_bn/moving_mean", "shape": [960], "dtype": "float32", "quantization": {"dtype": "uint8", "min": -0.16084318710308448, "scale": 0.0016930861800324682, "original_dtype": "float32"}}, {"name": "conv5_block15_0_bn/moving_variance", "shape": [960], "dtype": "float32", "quantization": {"dtype": "uint8", "min": 0.0005218749865889549, "scale": 0.0001512758032071824, "original_dtype": "float32"}}, {"name": "conv5_block15_1_bn/gamma", "shape": [128], "dtype": "float32", "quantization": {"dtype": "uint8", "min": 0.07973358780145645, "scale": 0.0005982642956808502, "original_dtype": "float32"}}, {"name": "conv5_block15_1_bn/beta", "shape": [128], "dtype": "float32", "quantization": {"dtype": "uint8", "min": -0.3515891432762146, "scale": 0.0013308284037253436, "original_dtype": "float32"}}, {"name": "conv5_block15_1_bn/moving_mean", "shape": [128], "dtype": "float32", "quantization": {"dtype": "uint8", "min": -0.05980617704198641, "scale": 0.00031643479916394925, "original_dtype": "float32"}}, {"name": "conv5_block15_1_bn/moving_variance", "shape": [128], "dtype": "float32", "quantization": {"dtype": "uint8", "min": 0.0007317121489904821, "scale": 1.0949875657245808e-05, "original_dtype": "float32"}}, {"name": "conv5_block15_1_conv/kernel", "shape": [1, 1, 960, 128], "dtype": "float32", "quantization": {"dtype": "uint8", "min": -0.13086430862838147, "scale": 0.0011090195646473006, "original_dtype": "float32"}}, {"name": "conv5_block15_2_conv/kernel", "shape": [3, 3, 128, 32], "dtype": "float32", "quantization": {"dtype": "uint8", "min": -0.06883976281273599, "scale": 0.000894022893671896, "original_dtype": "float32"}}, {"name": "conv5_block16_0_bn/gamma", "shape": [992], "dtype": "float32", "quantization": {"dtype": "uint8", "min": -0.0, "scale": 0.0006836723693756058, "original_dtype": "float32"}}, {"name": "conv5_block16_0_bn/beta", "shape": [992], "dtype": "float32", "quantization": {"dtype": "uint8", "min": -0.16578000082689173, "scale": 0.0011841428630492267, "original_dtype": "float32"}}, {"name": "conv5_block16_0_bn/moving_mean", "shape": [992], "dtype": "float32", "quantization": {"dtype": "uint8", "min": -0.16084318710308448, "scale": 0.0016930861800324682, "original_dtype": "float32"}}, {"name": "conv5_block16_0_bn/moving_variance", "shape": [992], "dtype": "float32", "quantization": {"dtype": "uint8", "min": 0.0005218749865889549, "scale": 0.0001512758032071824, "original_dtype": "float32"}}, {"name": "conv5_block16_1_bn/gamma", "shape": [128], "dtype": "float32", "quantization": {"dtype": "uint8", "min": 0.10553107410669327, "scale": 0.0005168053157189313, "original_dtype": "float32"}}, {"name": "conv5_block16_1_bn/beta", "shape": [128], "dtype": "float32", "quantization": {"dtype": "uint8", "min": -0.3448338508605957, "scale": 0.001294256947642448, "original_dtype": "float32"}}, {"name": "conv5_block16_1_bn/moving_mean", "shape": [128], "dtype": "float32", "quantization": {"dtype": "uint8", "min": -0.07317366470016685, "scale": 0.0004042743906086566, "original_dtype": "float32"}}, {"name": "conv5_block16_1_bn/moving_variance", "shape": [128], "dtype": "float32", "quantization": {"dtype": "uint8", "min": 0.001110461656935513, "scale": 1.5694724268042573e-05, "original_dtype": "float32"}}, {"name": "conv5_block16_1_conv/kernel", "shape": [1, 1, 992, 128], "dtype": "float32", "quantization": {"dtype": "uint8", "min": -0.14043760299682617, "scale": 0.0012319087982177734, "original_dtype": "float32"}}, {"name": "conv5_block16_2_conv/kernel", "shape": [3, 3, 128, 32], "dtype": "float32", "quantization": {"dtype": "uint8", "min": -0.05573604434144263, "scale": 0.0008708756928350411, "original_dtype": "float32"}}, {"name": "conv5_block1_0_bn/gamma", "shape": [512], "dtype": "float32", "quantization": {"dtype": "uint8", "min": 5.900869268771203e-07, "scale": 0.000699527731125067, "original_dtype": "float32"}}, {"name": "conv5_block1_0_bn/beta", "shape": [512], "dtype": "float32", "quantization": {"dtype": "uint8", "min": -0.14330144226551056, "scale": 0.0008429496603853563, "original_dtype": "float32"}}, {"name": "conv5_block1_0_bn/moving_mean", "shape": [512], "dtype": "float32", "quantization": {"dtype": "uint8", "min": -0.16084318710308448, "scale": 0.0016930861800324682, "original_dtype": "float32"}}, {"name": "conv5_block1_0_bn/moving_variance", "shape": [512], "dtype": "float32", "quantization": {"dtype": "uint8", "min": 0.00312218489125371, "scale": 0.00014107850946339906, "original_dtype": "float32"}}, {"name": "conv5_block1_1_bn/gamma", "shape": [128], "dtype": "float32", "quantization": {"dtype": "uint8", "min": 0.10253674536943436, "scale": 0.0005648753514476851, "original_dtype": "float32"}}, {"name": "conv5_block1_1_bn/beta", "shape": [128], "dtype": "float32", "quantization": {"dtype": "uint8", "min": -0.3388331904423003, "scale": 0.0015614432739276512, "original_dtype": "float32"}}, {"name": "conv5_block1_1_bn/moving_mean", "shape": [128], "dtype": "float32", "quantization": {"dtype": "uint8", "min": -0.10235061418885985, "scale": 0.0004282452476521333, "original_dtype": "float32"}}, {"name": "conv5_block1_1_bn/moving_variance", "shape": [128], "dtype": "float32", "quantization": {"dtype": "uint8", "min": 0.0011046079453080893, "scale": 6.919346895872378e-06, "original_dtype": "float32"}}, {"name": "conv5_block1_1_conv/kernel", "shape": [1, 1, 512, 128], "dtype": "float32", "quantization": {"dtype": "uint8", "min": -0.11731879600122863, "scale": 0.00107631922936907, "original_dtype": "float32"}}, {"name": "conv5_block1_2_conv/kernel", "shape": [3, 3, 128, 32], "dtype": "float32", "quantization": {"dtype": "uint8", "min": -0.15045233392247967, "scale": 0.0013082811645433014, "original_dtype": "float32"}}, {"name": "conv5_block2_0_bn/gamma", "shape": [544], "dtype": "float32", "quantization": {"dtype": "uint8", "min": 5.966064087203904e-09, "scale": 0.0006815315227662942, "original_dtype": "float32"}}, {"name": "conv5_block2_0_bn/beta", "shape": [544], "dtype": "float32", "quantization": {"dtype": "uint8", "min": -0.11410961267994899, "scale": 0.0012403218769559672, "original_dtype": "float32"}}, {"name": "conv5_block2_0_bn/moving_mean", "shape": [544], "dtype": "float32", "quantization": {"dtype": "uint8", "min": -0.16084318710308448, "scale": 0.0016930861800324682, "original_dtype": "float32"}}, {"name": "conv5_block2_0_bn/moving_variance", "shape": [544], "dtype": "float32", "quantization": {"dtype": "uint8", "min": 0.0018011413048952818, "scale": 0.0001462590725471576, "original_dtype": "float32"}}, {"name": "conv5_block2_1_bn/gamma", "shape": [128], "dtype": "float32", "quantization": {"dtype": "uint8", "min": 0.12051256746053696, "scale": 0.0005360427148201886, "original_dtype": "float32"}}, {"name": "conv5_block2_1_bn/beta", "shape": [128], "dtype": "float32", "quantization": {"dtype": "uint8", "min": -0.3481506109237671, "scale": 0.0013097691587081143, "original_dtype": "float32"}}, {"name": "conv5_block2_1_bn/moving_mean", "shape": [128], "dtype": "float32", "quantization": {"dtype": "uint8", "min": -0.0685816079378128, "scale": 0.0003204748034477234, "original_dtype": "float32"}}, {"name": "conv5_block2_1_bn/moving_variance", "shape": [128], "dtype": "float32", "quantization": {"dtype": "uint8", "min": 0.001086164847947657, "scale": 7.952791273447812e-06, "original_dtype": "float32"}}, {"name": "conv5_block2_1_conv/kernel", "shape": [1, 1, 544, 128], "dtype": "float32", "quantization": {"dtype": "uint8", "min": -0.21578044049880085, "scale": 0.001798170337490007, "original_dtype": "float32"}}, {"name": "conv5_block2_2_conv/kernel", "shape": [3, 3, 128, 32], "dtype": "float32", "quantization": {"dtype": "uint8", "min": -0.21290272731407017, "scale": 0.0016633025571411732, "original_dtype": "float32"}}, {"name": "conv5_block3_0_bn/gamma", "shape": [576], "dtype": "float32", "quantization": {"dtype": "uint8", "min": -0.0, "scale": 0.0006789633083897962, "original_dtype": "float32"}}, {"name": "conv5_block3_0_bn/beta", "shape": [576], "dtype": "float32", "quantization": {"dtype": "uint8", "min": -0.1124488461543532, "scale": 0.001013052668057236, "original_dtype": "float32"}}, {"name": "conv5_block3_0_bn/moving_mean", "shape": [576], "dtype": "float32", "quantization": {"dtype": "uint8", "min": -0.16084318710308448, "scale": 0.0016930861800324682, "original_dtype": "float32"}}, {"name": "conv5_block3_0_bn/moving_variance", "shape": [576], "dtype": "float32", "quantization": {"dtype": "uint8", "min": 0.0016319714486598969, "scale": 0.0001469224837480807, "original_dtype": "float32"}}, {"name": "conv5_block3_1_bn/gamma", "shape": [128], "dtype": "float32", "quantization": {"dtype": "uint8", "min": 0.12788642942905426, "scale": 0.00043812914221894505, "original_dtype": "float32"}}, {"name": "conv5_block3_1_bn/beta", "shape": [128], "dtype": "float32", "quantization": {"dtype": "uint8", "min": -0.31170719861984253, "scale": 0.0012162336928989081, "original_dtype": "float32"}}, {"name": "conv5_block3_1_bn/moving_mean", "shape": [128], "dtype": "float32", "quantization": {"dtype": "uint8", "min": -0.08019423484802246, "scale": 0.000589663491529577, "original_dtype": "float32"}}, {"name": "conv5_block3_1_bn/moving_variance", "shape": [128], "dtype": "float32", "quantization": {"dtype": "uint8", "min": 0.001180228078737855, "scale": 1.2793204765401635e-05, "original_dtype": "float32"}}, {"name": "conv5_block3_1_conv/kernel", "shape": [1, 1, 576, 128], "dtype": "float32", "quantization": {"dtype": "uint8", "min": -0.19689190270853976, "scale": 0.001742406218659644, "original_dtype": "float32"}}, {"name": "conv5_block3_2_conv/kernel", "shape": [3, 3, 128, 32], "dtype": "float32", "quantization": {"dtype": "uint8", "min": -0.3279216661757114, "scale": 0.0020886730329663147, "original_dtype": "float32"}}, {"name": "conv5_block4_0_bn/gamma", "shape": [608], "dtype": "float32", "quantization": {"dtype": "uint8", "min": -0.0, "scale": 0.0006252739925912465, "original_dtype": "float32"}}, {"name": "conv5_block4_0_bn/beta", "shape": [608], "dtype": "float32", "quantization": {"dtype": "uint8", "min": -0.1216482910455442, "scale": 0.0011696951062071558, "original_dtype": "float32"}}, {"name": "conv5_block4_0_bn/moving_mean", "shape": [608], "dtype": "float32", "quantization": {"dtype": "uint8", "min": -0.16084318710308448, "scale": 0.0016930861800324682, "original_dtype": "float32"}}, {"name": "conv5_block4_0_bn/moving_variance", "shape": [608], "dtype": "float32", "quantization": {"dtype": "uint8", "min": 0.0016319714486598969, "scale": 0.0001469224837480807, "original_dtype": "float32"}}, {"name": "conv5_block4_1_bn/gamma", "shape": [128], "dtype": "float32", "quantization": {"dtype": "uint8", "min": 0.08903250098228455, "scale": 0.0005476372499091952, "original_dtype": "float32"}}, {"name": "conv5_block4_1_bn/beta", "shape": [128], "dtype": "float32", "quantization": {"dtype": "uint8", "min": -0.31841730475425717, "scale": 0.001560869140952241, "original_dtype": "float32"}}, {"name": "conv5_block4_1_bn/moving_mean", "shape": [128], "dtype": "float32", "quantization": {"dtype": "uint8", "min": -0.21847967968559734, "scale": 0.0010453573190698437, "original_dtype": "float32"}}, {"name": "conv5_block4_1_bn/moving_variance", "shape": [128], "dtype": "float32", "quantization": {"dtype": "uint8", "min": 0.0009108553058467805, "scale": 3.0059135728972215e-05, "original_dtype": "float32"}}, {"name": "conv5_block4_1_conv/kernel", "shape": [1, 1, 608, 128], "dtype": "float32", "quantization": {"dtype": "uint8", "min": -0.2440443353910072, "scale": 0.001834919814969979, "original_dtype": "float32"}}, {"name": "conv5_block4_2_conv/kernel", "shape": [3, 3, 128, 32], "dtype": "float32", "quantization": {"dtype": "uint8", "min": -0.37226903532065597, "scale": 0.002515331319734162, "original_dtype": "float32"}}, {"name": "conv5_block5_0_bn/gamma", "shape": [640], "dtype": "float32", "quantization": {"dtype": "uint8", "min": -0.0, "scale": 0.0007029312771063654, "original_dtype": "float32"}}, {"name": "conv5_block5_0_bn/beta", "shape": [640], "dtype": "float32", "quantization": {"dtype": "uint8", "min": -0.1596825031673207, "scale": 0.0013765733031665577, "original_dtype": "float32"}}, {"name": "conv5_block5_0_bn/moving_mean", "shape": [640], "dtype": "float32", "quantization": {"dtype": "uint8", "min": -0.16084318710308448, "scale": 0.0016930861800324682, "original_dtype": "float32"}}, {"name": "conv5_block5_0_bn/moving_variance", "shape": [640], "dtype": "float32", "quantization": {"dtype": "uint8", "min": 0.0011261398904025555, "scale": 0.00014890613691771732, "original_dtype": "float32"}}, {"name": "conv5_block5_1_bn/gamma", "shape": [128], "dtype": "float32", "quantization": {"dtype": "uint8", "min": 0.08601018041372299, "scale": 0.0005043467762423496, "original_dtype": "float32"}}, {"name": "conv5_block5_1_bn/beta", "shape": [128], "dtype": "float32", "quantization": {"dtype": "uint8", "min": -0.32799261808395386, "scale": 0.0011758994968498453, "original_dtype": "float32"}}, {"name": "conv5_block5_1_bn/moving_mean", "shape": [128], "dtype": "float32", "quantization": {"dtype": "uint8", "min": -0.06813268110740418, "scale": 0.0003213805712613405, "original_dtype": "float32"}}, {"name": "conv5_block5_1_bn/moving_variance", "shape": [128], "dtype": "float32", "quantization": {"dtype": "uint8", "min": 0.0009264102554880083, "scale": 7.789780376661641e-06, "original_dtype": "float32"}}, {"name": "conv5_block5_1_conv/kernel", "shape": [1, 1, 640, 128], "dtype": "float32", "quantization": {"dtype": "uint8", "min": -0.14827081035165227, "scale": 0.0011405446950127098, "original_dtype": "float32"}}, {"name": "conv5_block5_2_conv/kernel", "shape": [3, 3, 128, 32], "dtype": "float32", "quantization": {"dtype": "uint8", "min": -0.07758695535800036, "scale": 0.0009578636463950663, "original_dtype": "float32"}}, {"name": "conv5_block6_0_bn/gamma", "shape": [672], "dtype": "float32", "quantization": {"dtype": "uint8", "min": -0.0, "scale": 0.0008015530381417485, "original_dtype": "float32"}}, {"name": "conv5_block6_0_bn/beta", "shape": [672], "dtype": "float32", "quantization": {"dtype": "uint8", "min": -0.14303837336745917, "scale": 0.0015056670880785176, "original_dtype": "float32"}}, {"name": "conv5_block6_0_bn/moving_mean", "shape": [672], "dtype": "float32", "quantization": {"dtype": "uint8", "min": -0.16084318710308448, "scale": 0.0016930861800324682, "original_dtype": "float32"}}, {"name": "conv5_block6_0_bn/moving_variance", "shape": [672], "dtype": "float32", "quantization": {"dtype": "uint8", "min": 0.0008432328468188643, "scale": 0.00015001557630432003, "original_dtype": "float32"}}, {"name": "conv5_block6_1_bn/gamma", "shape": [128], "dtype": "float32", "quantization": {"dtype": "uint8", "min": 0.09994195401668549, "scale": 0.0004865215689528222, "original_dtype": "float32"}}, {"name": "conv5_block6_1_bn/beta", "shape": [128], "dtype": "float32", "quantization": {"dtype": "uint8", "min": -0.3180892967710308, "scale": 0.001882185187994265, "original_dtype": "float32"}}, {"name": "conv5_block6_1_bn/moving_mean", "shape": [128], "dtype": "float32", "quantization": {"dtype": "uint8", "min": -0.4077850974073597, "scale": 0.001923514610412074, "original_dtype": "float32"}}, {"name": "conv5_block6_1_bn/moving_variance", "shape": [128], "dtype": "float32", "quantization": {"dtype": "uint8", "min": 0.0011089552426710725, "scale": 4.795928275687437e-05, "original_dtype": "float32"}}, {"name": "conv5_block6_1_conv/kernel", "shape": [1, 1, 672, 128], "dtype": "float32", "quantization": {"dtype": "uint8", "min": -0.3197435859371634, "scale": 0.002267685006646549, "original_dtype": "float32"}}, {"name": "conv5_block6_2_conv/kernel", "shape": [3, 3, 128, 32], "dtype": "float32", "quantization": {"dtype": "uint8", "min": -0.49045435587565106, "scale": 0.003606282028497434, "original_dtype": "float32"}}, {"name": "conv5_block7_0_bn/gamma", "shape": [704], "dtype": "float32", "quantization": {"dtype": "uint8", "min": -0.0, "scale": 0.0006605803790757907, "original_dtype": "float32"}}, {"name": "conv5_block7_0_bn/beta", "shape": [704], "dtype": "float32", "quantization": {"dtype": "uint8", "min": -0.12049274444580078, "scale": 0.0008859760621014763, "original_dtype": "float32"}}, {"name": "conv5_block7_0_bn/moving_mean", "shape": [704], "dtype": "float32", "quantization": {"dtype": "uint8", "min": -0.16084318710308448, "scale": 0.0016930861800324682, "original_dtype": "float32"}}, {"name": "conv5_block7_0_bn/moving_variance", "shape": [704], "dtype": "float32", "quantization": {"dtype": "uint8", "min": 0.0008432328468188643, "scale": 0.00015001557630432003, "original_dtype": "float32"}}, {"name": "conv5_block7_1_bn/gamma", "shape": [128], "dtype": "float32", "quantization": {"dtype": "uint8", "min": -0.0036702911606898495, "scale": 0.0009175727901724624, "original_dtype": "float32"}}, {"name": "conv5_block7_1_bn/beta", "shape": [128], "dtype": "float32", "quantization": {"dtype": "uint8", "min": -0.32447590547449445, "scale": 0.0014107648064108455, "original_dtype": "float32"}}, {"name": "conv5_block7_1_bn/moving_mean", "shape": [128], "dtype": "float32", "quantization": {"dtype": "uint8", "min": -0.0550241156609035, "scale": 0.0002974276522211, "original_dtype": "float32"}}, {"name": "conv5_block7_1_bn/moving_variance", "shape": [128], "dtype": "float32", "quantization": {"dtype": "uint8", "min": 2.992482360541539e-14, "scale": 1.4585549669113333e-05, "original_dtype": "float32"}}, {"name": "conv5_block7_1_conv/kernel", "shape": [1, 1, 704, 128], "dtype": "float32", "quantization": {"dtype": "uint8", "min": -0.29928541954825905, "scale": 0.002557995038874009, "original_dtype": "float32"}}, {"name": "conv5_block7_2_conv/kernel", "shape": [3, 3, 128, 32], "dtype": "float32", "quantization": {"dtype": "uint8", "min": -0.09844030001584222, "scale": 0.0010937811112871358, "original_dtype": "float32"}}, {"name": "conv5_block8_0_bn/gamma", "shape": [736], "dtype": "float32", "quantization": {"dtype": "uint8", "min": -0.0, "scale": 0.0006841776086195536, "original_dtype": "float32"}}, {"name": "conv5_block8_0_bn/beta", "shape": [736], "dtype": "float32", "quantization": {"dtype": "uint8", "min": -0.1152892323101268, "scale": 0.0012531438294579001, "original_dtype": "float32"}}, {"name": "conv5_block8_0_bn/moving_mean", "shape": [736], "dtype": "float32", "quantization": {"dtype": "uint8", "min": -0.16084318710308448, "scale": 0.0016930861800324682, "original_dtype": "float32"}}, {"name": "conv5_block8_0_bn/moving_variance", "shape": [736], "dtype": "float32", "quantization": {"dtype": "uint8", "min": 0.0008432328468188643, "scale": 0.00015001557630432003, "original_dtype": "float32"}}, {"name": "conv5_block8_1_bn/gamma", "shape": [128], "dtype": "float32", "quantization": {"dtype": "uint8", "min": 0.08270539343357086, "scale": 0.0005477094182781145, "original_dtype": "float32"}}, {"name": "conv5_block8_1_bn/beta", "shape": [128], "dtype": "float32", "quantization": {"dtype": "uint8", "min": -0.3415561608970165, "scale": 0.0015455029904842376, "original_dtype": "float32"}}, {"name": "conv5_block8_1_bn/moving_mean", "shape": [128], "dtype": "float32", "quantization": {"dtype": "uint8", "min": -0.18108023505877047, "scale": 0.0008582001661553103, "original_dtype": "float32"}}, {"name": "conv5_block8_1_bn/moving_variance", "shape": [128], "dtype": "float32", "quantization": {"dtype": "uint8", "min": 0.0009175212471745908, "scale": 1.3171649747984667e-05, "original_dtype": "float32"}}, {"name": "conv5_block8_1_conv/kernel", "shape": [1, 1, 736, 128], "dtype": "float32", "quantization": {"dtype": "uint8", "min": -0.3580421384643106, "scale": 0.0023869475897620707, "original_dtype": "float32"}}, {"name": "conv5_block8_2_conv/kernel", "shape": [3, 3, 128, 32], "dtype": "float32", "quantization": {"dtype": "uint8", "min": -0.2841828482992509, "scale": 0.0024289132333269307, "original_dtype": "float32"}}, {"name": "conv5_block9_0_bn/gamma", "shape": [768], "dtype": "float32", "quantization": {"dtype": "uint8", "min": -0.0006283288513419821, "scale": 0.0006283288513419821, "original_dtype": "float32"}}, {"name": "conv5_block9_0_bn/beta", "shape": [768], "dtype": "float32", "quantization": {"dtype": "uint8", "min": -0.1260935655411552, "scale": 0.0009699505041627323, "original_dtype": "float32"}}, {"name": "conv5_block9_0_bn/moving_mean", "shape": [768], "dtype": "float32", "quantization": {"dtype": "uint8", "min": -0.16084318710308448, "scale": 0.0016930861800324682, "original_dtype": "float32"}}, {"name": "conv5_block9_0_bn/moving_variance", "shape": [768], "dtype": "float32", "quantization": {"dtype": "uint8", "min": 0.0006819494883529842, "scale": 0.00015064806006300974, "original_dtype": "float32"}}, {"name": "conv5_block9_1_bn/gamma", "shape": [128], "dtype": "float32", "quantization": {"dtype": "uint8", "min": 0.08443305641412735, "scale": 0.0006471438442959505, "original_dtype": "float32"}}, {"name": "conv5_block9_1_bn/beta", "shape": [128], "dtype": "float32", "quantization": {"dtype": "uint8", "min": -0.43542909622192383, "scale": 0.0016262195054806915, "original_dtype": "float32"}}, {"name": "conv5_block9_1_bn/moving_mean", "shape": [128], "dtype": "float32", "quantization": {"dtype": "uint8", "min": -0.055924590545542094, "scale": 0.0002782317937589159, "original_dtype": "float32"}}, {"name": "conv5_block9_1_bn/moving_variance", "shape": [128], "dtype": "float32", "quantization": {"dtype": "uint8", "min": 0.0007717753760516644, "scale": 9.223675428360116e-06, "original_dtype": "float32"}}, {"name": "conv5_block9_1_conv/kernel", "shape": [1, 1, 768, 128], "dtype": "float32", "quantization": {"dtype": "uint8", "min": -0.14667930585496566, "scale": 0.001137048882596633, "original_dtype": "float32"}}, {"name": "conv5_block9_2_conv/kernel", "shape": [3, 3, 128, 32], "dtype": "float32", "quantization": {"dtype": "uint8", "min": -0.05229738193984126, "scale": 0.000886396304065106, "original_dtype": "float32"}}, {"name": "dense/kernel", "shape": [9216, 256], "dtype": "float32", "quantization": {"dtype": "uint8", "min": -0.11300675062572255, "scale": 0.0009113447631106657, "original_dtype": "float32"}}, {"name": "dense/bias", "shape": [256], "dtype": "float32", "quantization": {"dtype": "uint8", "min": -0.0144828677725266, "scale": 8.090987582417095e-05, "original_dtype": "float32"}}, {"name": "dense_1/kernel", "shape": [256, 128], "dtype": "float32", "quantization": {"dtype": "uint8", "min": -0.16647904176338046, "scale": 0.0013645823095359054, "original_dtype": "float32"}}, {"name": "dense_1/bias", "shape": [128], "dtype": "float32", "quantization": {"dtype": "uint8", "min": -0.08698698878288269, "scale": 0.0008528136155184577, "original_dtype": "float32"}}, {"name": "dense_2/kernel", "shape": [128, 64], "dtype": "float32", "quantization": {"dtype": "uint8", "min": -0.26768241676629756, "scale": 0.0020590955135869043, "original_dtype": "float32"}}, {"name": "dense_2/bias", "shape": [64], "dtype": "float32", "quantization": {"dtype": "uint8", "min": -0.0683227561268152, "scale": 0.000683227561268152, "original_dtype": "float32"}}, {"name": "dense_3/kernel", "shape": [64, 1], "dtype": "float32", "quantization": {"dtype": "uint8", "min": -0.27992236614227295, "scale": 0.00212062398592631, "original_dtype": "float32"}}, {"name": "dense_3/bias", "shape": [1], "dtype": "float32", "quantization": {"dtype": "uint8", "min": 0.042102422565221786, "scale": 1.0, "original_dtype": "float32"}}, {"name": "pool2_bn/gamma", "shape": [256], "dtype": "float32", "quantization": {"dtype": "uint8", "min": -0.3639645716723274, "scale": 0.0033087688333847945, "original_dtype": "float32"}}, {"name": "pool2_bn/beta", "shape": [256], "dtype": "float32", "quantization": {"dtype": "uint8", "min": -0.30698277178932637, "scale": 0.0029804152600905473, "original_dtype": "float32"}}, {"name": "pool2_bn/moving_mean", "shape": [256], "dtype": "float32", "quantization": {"dtype": "uint8", "min": -0.8286876362912796, "scale": 0.00502234931085624, "original_dtype": "float32"}}, {"name": "pool2_bn/moving_variance", "shape": [256], "dtype": "float32", "quantization": {"dtype": "uint8", "min": 5.605193857299268e-45, "scale": 0.0006629372344297521, "original_dtype": "float32"}}, {"name": "pool2_conv/kernel", "shape": [1, 1, 256, 128], "dtype": "float32", "quantization": {"dtype": "uint8", "min": -0.7666049167221668, "scale": 0.0066661297106275375, "original_dtype": "float32"}}, {"name": "pool3_bn/gamma", "shape": [512], "dtype": "float32", "quantization": {"dtype": "uint8", "min": -0.0, "scale": 0.0017483624506196274, "original_dtype": "float32"}}, {"name": "pool3_bn/beta", "shape": [512], "dtype": "float32", "quantization": {"dtype": "uint8", "min": -0.35801606248406803, "scale": 0.002435483418258966, "original_dtype": "float32"}}, {"name": "pool3_bn/moving_mean", "shape": [512], "dtype": "float32", "quantization": {"dtype": "uint8", "min": -1.1333232276579914, "scale": 0.005964859092936797, "original_dtype": "float32"}}, {"name": "pool3_bn/moving_variance", "shape": [512], "dtype": "float32", "quantization": {"dtype": "uint8", "min": 0.004002324305474758, "scale": 0.001416767027009936, "original_dtype": "float32"}}, {"name": "pool3_conv/kernel", "shape": [1, 1, 512, 256], "dtype": "float32", "quantization": {"dtype": "uint8", "min": -0.6650128682454427, "scale": 0.004889800501804726, "original_dtype": "float32"}}, {"name": "pool4_bn/gamma", "shape": [1024], "dtype": "float32", "quantization": {"dtype": "uint8", "min": 0.01107201911509037, "scale": 0.0017188483228286107, "original_dtype": "float32"}}, {"name": "pool4_bn/beta", "shape": [1024], "dtype": "float32", "quantization": {"dtype": "uint8", "min": -0.34301921433093496, "scale": 0.002317697394127939, "original_dtype": "float32"}}, {"name": "pool4_bn/moving_mean", "shape": [1024], "dtype": "float32", "quantization": {"dtype": "uint8", "min": -1.0310983770033892, "scale": 0.005370304046892652, "original_dtype": "float32"}}, {"name": "pool4_bn/moving_variance", "shape": [1024], "dtype": "float32", "quantization": {"dtype": "uint8", "min": 0.002104019047692418, "scale": 0.00023561584142347178, "original_dtype": "float32"}}, {"name": "pool4_conv/kernel", "shape": [1, 1, 1024, 512], "dtype": "float32", "quantization": {"dtype": "uint8", "min": -0.33977616359205803, "scale": 0.004194767451753803, "original_dtype": "float32"}}]}]}